Actor Critic Agents/Actor Critic - Movement Only Agent/models/ACMovementOnlyAgent.pth (torch, 517728 bytes, 22 tensors)

crop.width_grid f4 [3, 3]
-0.5 -0.25 0.0 -0.5 -0.25 0.0 -0.5 -0.25
0.0
00000000: 0000 00bf 0000 80be 0000 0000 0000 00bf
00000010: 0000 80be 0000 0000 0000 00bf 0000 80be
00000020: 0000 0000

crop.height_grid f4 [3, 3]
-0.5 -0.5 -0.5 -0.25 -0.25 -0.25 0.0 0.0
0.0
00000000: 0000 00bf 0000 00bf 0000 00bf 0000 80be
00000010: 0000 80be 0000 80be 0000 0000 0000 0000
00000020: 0000 0000

embed.weight f4 [16, 32]
-0.13049088 0.12306851 0.33396766 -0.1390122 -0.09333401 0.093104415 0.07019349 0.09677423
-0.091343865 0.18801247 0.06646328 -0.06413385 -0.08376373 0.10603304 -0.07886295 0.069958284
0.0808083 0.109072015 -0.11103294 0.0991983 -0.0146870315 -0.10930372 -0.1114853 0.10692338
-0.116593234 0.05929252 -0.088433124 0.08892947 -0.06084677 0.06543327 -0.090259776 -0.05447694
-0.06210331 -1.231609 0.014892958 1.0385295 -0.1482823 -0.34807986 -0.33077624 -1.2277808
0.57817715 -1.1748178 -0.09952111 -0.33670098 1.3723668 1.4438437 0.9801518 -0.06679089
-1.2868286 -0.458435 -2.0988855 0.7869578 -0.517048 0.30998954 -2.1439283 1.2644086
0.42760238 -1.3640844 -0.032832548 -0.3072591 0.6221331 -1.4123497 0.09137572 -0.08824734
0.6172539 -1.8336349 -0.4715789 -0.32208437 0.8439191 -0.7069986 -0.019018505 0.93621016
0.41955075 1.4352317 0.20939834 -1.8142554 0.3222561 -0.19467191 -1.6148882 -0.51269835
-0.51866835 0.025634004 1.3428491 0.9180307 0.29829755 -0.03930849 1.2464405 -0.39042273
-0.3980699 0.92647034 0.17493905 -0.040754512 0.5127651 -1.1715571 0.22663586 -0.13040613
0.68930763 -0.7739223 -0.0548643 -1.7266458 -3.236223 -0.4577013 0.082359985 0.035545766
-0.42610374 -0.6109983 -0.4141426 4.1902466 -1.2418705 0.95718855 1.2400498 0.6371767
1.2409025 1.4536351 -0.28350613 1.2081324 -2.0454905 -1.0030459 -1.0399051 0.26205188
-0.024082914 0.04039868 -1.4689423 3.0171213 1.5428754 -1.1513778 -0.17091209 -1.9049214
1.1883861 0.0891207 -1.260362 0.09379483 1.438785 -0.817151 0.87875235 -0.10352127
3.355791 -2.278992 0.33570677 0.44125095 -0.021756563 -1.3426129 0.774742 -1.9760724
0.5729861 -1.3651781 -0.10962425 1.0996797 -1.3049955 -0.31663126 -0.31616414 -2.4367204
-0.46484005 1.4151542 0.11307585 -0.63081646 0.08341125 -0.48503217 1.6339314 0.62428313
0.03760833 -0.41806954 0.37720037 0.58074725 -0.56845 -1.1598262 -0.27534592 0.40111703
-0.10882142 0.36409804 -0.5892834 -0.69897306 -0.5168764 -0.9241764 1.0326456 2.0601566
0.3375787 0.4970924 -0.054831292 -0.94109994 -1.4247423 -0.9019653 0.3937635 -0.47945267
0.06377443 0.56701285 1.0500245 -0.5348568 1.5175812 -0.54493165 -1.0729475 -0.75028867
0.6385156 1.2320784 -3.1153705 0.19754182 1.6949313 0.53450775 -1.060585 2.0875578
0.9124782 -0.89367706 1.3598012 -1.048603 0.8181589 -0.48013964 -0.9105663 -0.5976724
0.1648192 -0.4130405 0.70841026 0.48987052 1.4529229 -0.123547554 -0.15668368 0.45664337
-1.9159364 -0.9125543 0.5316772 -1.2884545 -0.20579278 -0.14996523 -0.38224566 0.87109435
0.82166994 -0.94628584 -2.552562 0.7506918 0.020126661 -0.39472267 -0.17332573 -0.12014555
0.110218905 -1.9672478 -0.028840143 0.21058698 0.055607665 -0.0082300985 0.6883046 -0.13811369
-0.070027955 -0.27857906 -0.0030148723 -0.10332266 0.6994087 0.5344343 0.11783606 -0.65044105
1.1531627 -2.0949202 0.03962712 -0.07372782 0.09727004 -0.08869231 0.032837346 0.06767391
00000000: 679f 05be 580b fc3d cffd aa3e 3759 0ebe
00000010: e725 bfbd 87ad be3d 9bc1 8f3d 9131 c63d
00000020: 7e12 bbbd 5786 403e e61d 883d 9c58 83bd
00000030: 528c abbd da27 d93d e682 a1bd 4a46 8f3d
00000040: d27e a53d 2661 df3d 3d65 e3bd 7a28 cb3d
00000050: e0a1 70bc a1da dfbd 6852 e4bd a5fa da3d
00000060: 6fc8 eebd b7dc 723d 6d1c b5bd a720 b63d
00000070: 763a 79bd e101 863d 1eda b8bd 3623 5fbd
00000080: 0a60 7ebd 5da5 9dbf 9801 743c 89ee 843f
00000090: 51d7 17be 8637 b2be 815b a9be ec27 9dbf
000000a0: 6b03 143f 6e60 96bf b9d1 cbbd 1264 acbe
000000b0: b7a9 af3f dfcf b83f 3aeb 7a3f aac9 88bd
000000c0: cdb6 a4bf feb7 eabe 2454 06c0 1176 493f
000000d0: 425d 04bf f3b6 9e3e 1f36 09c0 24d8 a13f
000000e0: b3ee da3e 519a aebf 6c7b 06bd 1151 9dbe
000000f0: 1d44 1f3f e0c7 b4bf 3223 bb3d 05bb b4bd
00000100: 5a04 1e3f 8cb4 eabf ca72 f1be 3ee8 a4be
00000110: 150b 583f dcfd 34bf b2cc 9bbc 78ab 6f3f
00000120: 5bcf d63e acb5 b73f 856c 563e 8539 e8bf
00000130: c0fe a43e 1358 47be a8b4 cebf 3340 03bf
00000140: 73c7 04bf 67fe d13c 7be2 ab3f 0f04 6b3f
00000150: 75ba 983e f001 21bd 5d8b 9f3f 7de5 c7be
00000160: d1cf cbbe 292d 6d3f 3923 333e 34ee 26bd
00000170: 9344 033f 95f5 95bf 3b13 683e 2f89 05be
00000180: 7776 303f c61f 46bf 63b9 60bd bb02 ddbf
00000190: 471e 4fc0 d357 eabe 5aac a83d 7098 113d
000001a0: 452a dabe 626a 1cbf 800a d4be 8016 8640
000001b0: 9df5 9ebf 4f0a 753f f4b9 9e3f 031e 233f
000001c0: e5d5 9e3f b710 ba3f b727 91be 15a4 9a3f
000001d0: 51e9 02c0 cf63 80bf 9c1b 85bf aa2b 863e
000001e0: 8849 c5bc 1679 253d 4d06 bcbf 8418 4140
000001f0: f17c c53f 5960 93bf 9403 2fbe 77d4 f3bf
00000200: 091d 983f ea84 b63d 8b53 a1bf 8117 c03d
00000210: 1b2a b83f cf30 51bf eaf5 603f f602 d4bd
00000220: 48c5 5640 01db 11c0 c2e1 ab3e a5eb e13e
00000230: d23a b2bc bdda abbf 7e55 463f f1ef fcbf
00000240: 38af 123f 28be aebf ae82 e0bd 4ec2 8c3f
00000250: 180a a7bf 7e1d a2be 44e0 a1be 3af3 1bc0
00000260: 84ff edbe c623 b53f 5094 e73d 307d 21bf
00000270: 84d3 aa3d 2356 f8be aa24 d13f 05d1 1f3f
00000280: 310b 1a3d 360d d6be 6820 c13e daab 143f
00000290: f085 11bf 2f75 94bf 24fa 8cbe 365f cd3e
000002a0: c4dd debd 0f6b ba3e 47db 16bf e6ef 32bf
000002b0: 0352 04bf d396 6cbf bb2d 843f 9bd9 0340
000002c0: 1ed7 ac3e e582 fe3e c796 60bd edeb 70bf
000002d0: f55d b6bf 33e7 66bf 5f9b c93e d27a f5be
000002e0: 2b9c 823d c127 113f 3467 863f 60ec 08bf
000002f0: 1a40 c23f a480 0bbf 5856 89bf eb12 40bf
00000300: c275 233f bfb4 9d3f 3b62 47c0 6748 4a3e
00000310: 82f3 d83f 80d5 083f 40c1 87bf 8c9a 0540
00000320: 2c98 693f 05c8 64bf f70d ae3f a038 86bf
00000330: dd72 513f ddd4 f5be df1a 69bf 0f01 19bf
00000340: 5dc6 283e 0b7a d3be 605a 353f 4fd0 fa3e
00000350: 61f9 b93f 8006 fdbd b071 20be 29cd e93e
00000360: 673d f5bf 299d 69bf ff1b 083f 14ec a4bf
00000370: 58bb 52be 7c90 19be b4b5 c3be 0a00 5f3f
00000380: f658 523f ca3f 72bf 2d5d 23c0 562d 403f
00000390: abe0 a43c 1719 cabe 4d7c 31be df0e f6bd
000003a0: 73ba e13d c7ce fbbf 2a42 ecbc 1da4 573e
000003b0: ddc4 633d 89d7 06bc bb34 303f ad6d 0dbe
000003c0: d16a 8fbd eaa1 8ebe 2a95 45bb d59a d3bd
000003d0: 730c 333f b0d0 083f 0854 f13d 4e83 26bf
000003e0: d69a 933f 2c13 06c0 0c50 223d 9cfe 96bd
000003f0: 8435 c73d 50a4 b5bd 7480 063d 9e98 8a3d

extract_representation.0.weight f4 [16, 32, 3, 3]
-0.07466576 0.1255156 -0.09240468 0.12768957 -0.00119251 0.0559265 -0.09978272 -0.03212605
0.0031729264 0.0012900434 -0.028726151 0.12328205 -0.17236285 0.07006502 0.037426747 0.13177124
0.05371702 -0.021281766 0.12942964 -0.13344339 0.19857886 -0.180807 0.105923 -0.052057438
0.020097706 -0.016423412 -0.024630701 -0.06479449 0.03348261 -0.12241386 0.07442549 -0.14061877
-0.023938205 -0.027229168 0.02795182 -0.15009688 -0.08745008 -0.08666287 -0.17804636 -0.0012486719
-0.13787983 0.17153467 -0.16122198 -0.067940146 -0.23661307 0.06454291 -0.06625815 0.14855891
-0.1687703 -0.017316623 0.10283038 -0.040250234 -0.06762843 -0.023013733 -0.0066152154 -0.06937827
0.106989205 -0.08279866 0.11526147 -0.049966447 0.11093996 0.012165309 -0.0059583033 0.14487647
-0.05115854 0.14681531 -0.11714018 0.08562017 0.14467908 -0.06391028 0.0008041317 0.16008872
-0.2540122 0.10497156 -0.24750917 0.032541048 -0.21303794 -0.060353372 -0.013549546 -0.051744368
-0.23402096 0.16250136 -0.07675161 0.101565324 -0.2748971 0.05869056 -0.0951072 0.1515113
0.03616143 -0.020585077 0.1666559 -0.11798404 0.10686752 -0.20372453 0.07472307 0.12923363
-0.04576714 0.008983581 0.031183006 0.04638277 0.15342489 0.00062284025 0.12895161 0.08800345
-0.12614648 0.13581122 -0.09173505 0.23760149 -0.08938438 -0.056118168 -0.10510571 0.07191318
-0.2369779 0.08863754 -0.0918223 -0.10521758 -0.15779515 0.13323896 -0.03171192 0.039161272
-0.03125529 0.18872893 -0.059526492 0.16061747 0.030543061 0.29121476 -0.18020992 0.18294072
-0.15638696 0.23030089 -0.05615277 -0.081389666 -0.015814288 -0.0570617 0.01032334 0.0356129
-0.032214444 0.077984504 -0.04136114 0.14875159 0.07226647 0.08595828 -0.022607932 0.131425
0.17199537 0.12341287 0.26594594 -0.11340393 0.24279994 -0.015085361 0.089163736 -0.10521957
0.31434992 0.18925211 -0.092835724 0.22226411 -0.07151609 0.1315622 0.19071291 -0.05110685
-0.08609375 0.2270066 0.011424608 0.16720119 0.057656415 0.0050878916 -0.026979977 0.035037294
-0.058729824 -0.019560402 -0.14506929 0.12413872 0.07356227 0.32939652 -0.119558536 0.15935808
-0.06182294 0.061205015 -0.27957302 0.34218186 -0.19426572 0.22928303 -0.30912143 -0.027776707
-0.062094577 -0.16672356 -0.021083849 0.093521856 -0.3897374 -0.14447029 0.014745307 -0.26364785
0.17198464 -0.22698237 -0.08038406 -0.10562274 -0.039691694 -0.17181654 -0.31201842 0.015208703
-0.2619475 0.15740679 -0.20510949 -0.15972932 0.037827723 0.071631156 -0.26040417 0.17840675
-0.12005253 0.18693422 -0.18228744 0.076601125 0.09717295 0.0017148705 -0.08234758 0.108592965
-0.147789 0.01577447 -0.13688557 0.19291036 -0.10841658 -0.005345113 -0.10056935 0.017512772
0.008021152 0.14938015 -0.18970059 0.16636091 -0.16022144 0.13620879 0.07896181 0.05035234
0.029482873 0.10311211 -0.07868871 -0.0062223664 -0.10161055 0.13859892 -0.18405844 0.10971159
-0.14674291 0.07768661 -0.33836597 0.19343548 0.13771679 0.15252115 -0.06311396 0.28384328
-0.15648384 0.23767297 -0.07320716 0.21311936 0.106614605 -0.093161985 0.1256874 0.08846178
00000000: 5dea 98bd 2987 003e aa3e bdbd 0ec1 023e
00000010: ff4d 9cba 3013 653d e25a ccbd 9b96 03bd
00000020: dff0 4f3b ac16 a93a 1b53 ebbc 4d7b fc3d
00000030: e37f 30be 407e 8f3d ca4c 193d 0aef 063e
00000040: 6106 5c3d 1957 aebc 3489 043e 62a5 08be
00000050: 4258 4b3e 7825 39be 28ee d83d 2e3a 55bd
00000060: f2a3 a43c 648a 86bc 53c6 c9bc f9b2 84bd
00000070: 1025 093d 1eb4 fabd 646c 983d 5efe 0fbe
00000080: 0e1a c4bc b40f dfbc 37fb e43c ffb2 19be
00000090: 0719 b3bd 4e7c b1bd c951 36be 7aaa a3ba
000000a0: 5f30 0dbe c9a6 2f3e 6017 25be 3424 8bbd
000000b0: b24a 72be 132f 843d 5ab2 87bd d41f 183e
000000c0: 1fd2 2cbe 97db 8dbc bc98 d23d 6edd 24bd
000000d0: c680 8abd 4c87 bcbc 73c4 d8bb 3216 8ebd
000000e0: 281d db3d 5892 a9bd 350e ec3d 9ea9 4cbd
000000f0: 7d34 e33d 0151 473c df3d c3bb 7f5a 143e
00000100: 9e8b 51bd c156 163e 31e7 efbd a159 af3d
00000110: c126 143e 65e3 82bd 5dcc 523a 4cee 233e
00000120: e30d 82be 54fb d63d 0b73 7dbe c349 053d
00000130: 9e26 5abe 1935 77bd eafe 5dbc e7f1 53bd
00000140: 31a3 6fbe c266 263e f32f 9dbd 7b01 d03d
00000150: 50bf 8cbe 8365 703d 90c7 c2bd c725 1b3e
00000160: 021e 143d 09a2 a8bc d8a7 2a3e 9ea1 f1bd
00000170: 5cdd da3d 2a9d 50be 6908 993d d255 043e
00000180: 5376 3bbd df2f 133c 8173 ff3c dcfb 3d3d
00000190: 6a1b 1d3e 1a46 233a e40b 043e 273b b43d
000001a0: 8b2c 01be 1912 0b3e 96df bbbd ce4d 733e
000001b0: 280f b7bd 2adc 65bd aa41 d7bd 3847 933d
000001c0: 56aa 72be 9987 b53d 540d bcbd 517c d7bd
000001d0: 0d95 21be cb6f 083e 5ce4 01bd 9267 203d
000001e0: 8c05 00bd 2842 413e 0dd2 73bd e878 243e
000001f0: 7135 fa3c 1a1a 953e f388 38be d054 3b3e
00000200: e723 20be ffd3 6b3e 7200 66bd a0af a6bd
00000210: f78c 81bc 87b9 69bd 3a23 293c d5de 113d
00000220: 4bf3 03bd 57b6 9f3d 4c6a 29bd 5652 183e
00000230: 7100 943d e50a b03d 4534 b9bc 4694 063e
00000240: 8e1f 303e e3bf fc3d 112a 883e 5240 e8bd
00000250: 8ca0 783e 9728 77bc 7a9b b63d 5c7d d7bd
00000260: 79f2 a03e 4ecb 413e a820 bebd 3499 633e
00000270: 0777 92bd 3eb8 063e 3f4a 433e 6b55 51bd
00000280: ec51 b0bd 6b74 683e 472e 3b3c ca36 2b3e
00000290: 2229 6c3d 54b8 a63b 1d05 ddbc 4483 0f3d
000002a0: af8e 70bd 233d a0bc 0b8d 14be 713c fe3d
000002b0: d1a7 963d a9a6 a83e 1bdb f4bd c42e 233e
000002c0: 0d3a 7dbd 1cb2 7a3d 3224 8fbe 7632 af3e
000002d0: 98ed 46be 2cc9 6a3e 2a45 9ebe fa8b e3bc
000002e0: e256 7ebd 95b9 2abe 09b8 acbc 6388 bf3d
000002f0: a98b c7be 05f0 13be 4d96 713c dafc 86be
00000300: be1c 303e 116e 68be 66a0 a4bd bc50 d8bd
00000310: c293 22bd adf0 2fbe e1c0 9fbe ec2d 793c
00000320: fc1d 86be 3f2f 213e 3908 52be 1590 23be
00000330: 3ef1 1a3d 5bb3 923d b253 85be 42b0 363e
00000340: 1ade f5bd af6b 3f3e 8fa9 3abe 0de1 9c3d
00000350: 9d02 c73d 81c5 e03a d9a5 a8bd fd65 de3d
00000360: 0056 17be 7639 813c bb2b 0cbe 4b8a 453e
00000370: 8309 debd 0f26 afbb 4ef7 cdbd f276 8f3c
00000380: 266b 033c 1cf7 183e df40 42be 845a 2a3e
00000390: 1711 24be 517a 0b3e bbb6 a13d 413e 4e3d
000003a0: 1186 f13c 712c d33d 8c27 a1bd fee4 cbbb
000003b0: 3119 d0bd e0ec 0d3e d179 3cbe 78b0 e03d
000003c0: c643 16be 281a 9f3d 4e3e adbe f313 463e
000003d0: a105 0d3e 812e 1c3e e441 81bd e853 913e
000003e0: 4d3d 20be 8b60 733e a3ed 95bd f63b 5a3e
000003f0: c258 da3d b6cb bebd 33b4 003e 732b b53d

extract_representation.0.bias f4 [16]
0.034349415 -0.03838097 -0.15370815 -0.09834897 -0.039329614 -0.09294479 -0.05178021 -0.041021116
-0.15622371 0.013349559 0.06793355 0.059863497 -0.018113745 0.009279914 0.065187044 -0.10698453
00000000: f9b1 0c3d 5d35 1dbd ab65 1dbe 2f6b c9bd
00000010: 1718 21bd d759 bebd 7c17 54bd c205 28bd
00000020: 1cf9 1fbe 1cb8 5a3c bf20 8b3d 6d33 753d
00000030: 4763 94bc c80a 183c c980 853d b51a dbbd

extract_representation.2.weight f4 [8, 16, 3, 3]
0.0072868355 0.011075437 -0.1340324 0.025087807 0.07173313 0.02670226 0.037066564 0.2688609
-0.11532098 0.004108801 -0.0409245 0.024976071 -0.015618718 0.1959029 -0.0206032 0.047255795
-0.04122051 0.14236341 -0.06399434 0.047040075 -0.06981889 -0.00031475537 -0.19583705 0.06551785
-0.019236362 -0.06484974 0.08737793 -0.051956747 -0.12509179 -0.09726367 0.17807572 0.3064908
-0.30013335 0.09179427 0.0065570553 0.15028363 0.061712854 -0.088728845 0.21787322 -0.19169664
-0.23392409 0.054265432 -0.03841464 0.17118515 0.089739665 -0.1943156 -0.008572342 -0.1438314
0.08358557 0.12233045 0.09403303 0.037185024 -0.062182847 0.22017147 0.2321266 -0.009404826
0.16677965 0.047938816 0.09943835 -0.09487436 -0.14914902 -0.088944405 -0.023360524 -0.10390794
-0.13020045 -0.0122443 0.10529037 0.43684426 -0.19179949 0.0039983634 0.09433402 -0.10445328
-0.23180825 0.112591475 0.10427178 0.08201896 0.36416677 -0.035641596 0.2029902 -0.083340496
-0.32961935 -0.13475883 0.2957655 -0.081586465 0.20399496 -0.08148012 0.009304006 0.02648733
-0.008877793 0.007931948 0.02179385 0.10711097 -0.05704765 0.0019370179 0.18764679 0.028230738
0.064085126 0.1357102 -0.12375347 -0.2180101 0.015702236 0.11279978 0.0007833639 0.14221978
0.053020958 0.1350456 0.18828076 -0.025699195 -0.06887595 -0.085251175 -0.09784777 0.19151253
0.31462073 -0.030232243 0.15321957 0.07804024 0.06337296 -0.12990099 -0.03258351 -0.069662005
0.114673354 0.124833055 0.020903954 0.15397032 0.2598223 -0.005459067 0.18925028 -0.13995744
0.04592482 0.091100395 0.46343827 -0.058527563 -0.13575205 -0.056904227 0.44870636 0.1988426
0.047885682 0.19868118 -0.06951115 0.10240952 0.2041995 -0.067805536 -0.0989468 -0.08660762
0.14892259 0.17459485 -0.1377654 -0.023618683 0.09050096 -0.0047427267 -0.15988298 -0.13134193
0.1270015 -0.044396523 0.03054251 -0.018426754 -0.083435155 0.050031986 0.07962891 -0.13279861
0.059024833 -0.1532025 -0.17263956 0.003973402 -0.03051375 0.06268354 -0.07438613 0.09834147
0.039186623 -0.20483074 0.06938953 -0.066860214 -0.015557037 -0.1929251 -0.00097375124 -0.11796747
0.0947784 0.09367167 0.009483881 -0.1035377 -0.010683009 -0.3173215 -0.068722285 -0.020612838
0.13178244 0.23601906 -0.051600963 0.07545019 -0.12180399 -0.025716074 0.05967871 -0.039069038
0.06054498 -0.1301913 0.096830525 -0.009996994 0.042473372 0.21297291 -0.091965854 0.022300702
-0.0027249653 0.04545509 0.11042185 0.1525584 -0.21461098 0.07699189 -0.14324047 -0.12844568
0.18085523 -0.1269006 -0.023557862 -0.13942148 -0.121569365 -0.08843491 -0.005200168 0.026622074
-0.038902402 0.13086723 -0.19357078 0.31377292 -0.034153942 -0.06429136 0.009981708 -0.09149638
0.07674723 0.087046124 0.09142997 0.10109521 0.034156058 0.00769902 0.001315424 -0.29120633
0.026856668 0.04106652 -0.06573803 -0.10684012 0.04718473 0.10213116 0.11592387 0.10652967
0.017080488 -0.11534124 -0.010804671 0.024017284 -0.05058055 0.1293894 -0.13181928 0.1449134
-0.023004012 0.056643024 -0.11276313 0.010023224 -0.037601013 0.1636255 -0.06259743 0.060209412
00000000: 68c6 ee3b c075 353c ca3f 09be f284 cd3c
00000010: d2e8 923d b3be da3c 1cd3 173d 23a8 893e
00000020: 682d ecbd 1fa3 863b 73a0 27bd 9e9a cc3c
00000030: a7e5 7fbc c59a 483e 0bc8 a8bc 4b8f 413d
00000040: d6d6 28bd b7c7 113e 770f 83bd 18ad 403d
00000050: 35fd 8ebd c005 a5b9 8289 48be 392e 863d
00000060: 9395 9dbc f1cf 84bd 33f3 b23d 99d0 54bd
00000070: 1018 00be 2d32 c7bd 7b59 363e 5dec 9c3e
00000080: 14ab 99be a2fe bb3d 91dc d63b f4e3 193e
00000090: 9ec6 7c3d 78b7 b5bd 281a 5f3e 204c 44be
000000a0: cc89 6fbe 6e45 5e3d ab58 1dbd 294b 2f3e
000000b0: 6ec9 b73d abfa 46be 0273 0cbc 8a48 13be
000000c0: e92e ab3d 6388 fa3d 6494 c03d 534f 183d
000000d0: 71b3 7ebd a174 613e 98b2 6d3e b316 1abc
000000e0: 49c8 2a3e 7e5b 443d 55a6 cb3d 7d4d c2bd
000000f0: 85ba 18be 7c28 b6bd 925e bfbc b0cd d4bd
00000100: 4453 05be 519c 48bc 7aa2 d73d 0daa df3e
00000110: 1667 44be b404 833b 3232 c13d 9aeb d5bd
00000120: 245f 6dbe 5c96 e63d 718c d53d 8ef9 a73d
00000130: 1174 ba3e ecfc 11bd aadc 4f3e 6cae aabd
00000140: dec3 a8be 38fe 09be 936e 973e ce16 a7bd
00000150: 0ee4 503e 0ddf a6bd d46f 183c f5fb d83c
00000160: 2a74 11bc 00f5 013c 0489 b23c ff5c db3d
00000170: ccaa 69bd 89e3 fd3a 7b26 403e 2644 e73c
00000180: 103f 833d 9df7 0a3e 7672 fdbd 0a3e 5fbe
00000190: faa1 803c 9203 e73d a95a 4d3a 10a2 113e
000001a0: 812c 593d 6549 0a3e accc 403e 1e87 d2bc
000001b0: d60e 8dbd 2b98 aebd 6964 c8bd dc1b 443e
000001c0: f815 a13e 9ca9 f7bc 97e5 1c3e 90d3 9f3d
000001d0: afc9 813d c404 05be 4976 05bd f4aa 8ebd
000001e0: ddd9 ea3d 79a8 ff3d c53e ab3c 65aa 1d3e
000001f0: 6e07 853e f9e1 b2bb d3ca 413e 0151 0fbe
00000200: aa1b 3c3d d892 ba3d c847 ed3e 99ba 6fbd
00000210: 9602 0bbe 6814 69bd d7bc e53e 659d 4b3e
00000220: c723 443d 1473 4b3e dd5b 8ebd 15bc d13d
00000230: ac19 513e a1dd 8abd 9fa4 cabd 565f b1bd
00000240: 2a7f 183e fec8 323e 5f12 0dbe f87b c1bc
00000250: 9158 b93d e068 9bbb 5db8 23be 807e 06be
00000260: ae0c 023e 21d9 35bd 4934 fa3c b4f3 96bc
00000270: 0de0 aabd 57ee 4c3d 7b14 a33d 5cfc 07be
00000280: 06c4 713d 1ee1 1cbe 6dc8 30be 5033 823b
00000290: f9f7 f9bc 3a60 803d c157 98bd 4167 c93d
000002a0: 2782 203d 26bf 51be 191c 8e3d 02ee 88bd
000002b0: f1e2 7ebc 288e 45be 5743 7fba ee98 f1bd
000002c0: 2e1b c23d efd6 bf3d 4862 1b3c 930b d4bd
000002d0: ca07 2fbc f777 a2be 45be 8cbd 41dc a8bc
000002e0: faf1 063e fbae 713e 885b 53bd a185 9a3d
000002f0: 5f74 f9bd 84aa d2bc aa71 743d db06 20bd
00000300: 03fe 773d de50 05be 154f c63d 6fca 23bc
00000310: 8ff8 2d3d 9215 5a3e 9858 bcbd f6af b63c
00000320: 5595 32bb 1e2f 3a3d da24 e23d 4538 1c3e
00000330: fbc2 5bbe edad 9d3d a1ad 12be 4487 03be
00000340: 1d32 393e 3bf2 01be 6bfc c0bc 81c4 0ebe
00000350: 5cf9 f8bd 5d1d b5bd 2c66 aabb 8916 da3c
00000360: 2058 1fbd 0f02 063e 6b37 46be d8a6 a03e
00000370: 01e5 0bbd 30ab 83bd 518a 233c 7462 bbbd
00000380: a72d 9d3d 3d45 b23d a33f bb3d 010b cf3d
00000390: 39e7 0b3d 1048 fc3b 4e6a ac3a ff18 95be
000003a0: 8402 dc3c 5e35 283d a9a1 86bd fece dabd
000003b0: c744 413d 242a d13d 7e69 ed3d 3a2c da3d
000003c0: 61ec 8b3c 0738 ecbd 1306 31bc e5bf c43c
000003d0: 8d2d 4fbd a87e 043e a2fb 06be 2e64 143e
000003e0: e972 bcbc 8402 683d 5bf0 e6bd 7338 243c
000003f0: 8503 1abd 718d 273e 1533 80bd 259e 763d

extract_representation.2.bias f4 [8]
-0.02563824 -0.067183666 -0.33000436 -0.15815179 -0.061322905 -0.31958172 -0.18886898 -0.24465467
00000000: 4907 d2bc 9797 89bd 55f6 a8be 8bf2 21be
00000010: ba2d 7bbd 37a0 a3be df66 41be c186 7abe

extract_crop_representation.0.weight f4 [16, 32, 3, 3]
0.05706687 0.03964021 -0.10936044 -0.009054273 0.006540433 0.0065921796 -0.09903337 -0.002905813
-0.06660803 -0.06124268 -0.03782623 0.108350106 0.14869083 0.035122804 0.002887042 0.143902
-0.010246466 0.09074982 0.036648635 -0.048036903 0.12351207 0.018979868 0.044220008 0.094270445
0.10018241 0.011138829 0.041029066 0.01788985 -0.024896735 -0.049220096 0.004203816 0.0007435552
-0.011875115 -0.04312042 -0.011673881 -0.029028764 -0.14260748 -0.038778674 -0.01714221 -0.030066023
-0.035071757 0.024156552 0.06581114 0.045906298 0.055418476 -0.08742863 -0.00365525 0.04340784
0.14819835 0.028041461 0.06867259 0.19388983 0.042568713 0.16856104 -0.011239332 -0.048417713
0.13695557 0.053962648 -0.007198319 -0.03315065 -0.08732833 0.012333933 0.054533113 -0.10163366
0.006245741 0.024977714 -0.023744205 0.01123494 0.06881616 -0.023341537 -0.016714556 0.13319983
0.14381304 0.040534228 -0.018295797 0.14009535 0.06386461 -0.09390649 -0.01783154 -0.021083226
-0.066887066 0.023444742 -0.0048934952 0.14940226 0.12848353 -0.0044278093 0.028100207 0.042010203
-0.08450942 0.11416468 -0.21553454 -0.09919035 0.076999165 -0.18599665 -0.017721944 0.1436795
0.052853018 -0.013553702 0.16143349 -0.05410496 -0.027166799 -0.17495167 -0.046653986 0.055495296
-0.1097373 -0.23733312 0.004246446 -0.16568618 -0.029173167 0.05900918 -0.15464133 -0.060864057
-0.042709026 -0.05173865 -0.061405104 -0.004474901 -0.048351396 0.1321373 0.016293336 0.009030148
0.13311402 0.082050756 0.065724134 0.15125175 0.056820177 0.0786128 0.0071646003 0.12280395
-0.17399593 -0.03647564 0.09890753 -0.0046765255 -0.24621832 -0.006432392 -0.19483756 -0.02296441
-0.06450787 0.06481491 -0.0056155105 0.032050442 0.07398116 0.10401391 0.02584027 0.19551282
0.1276656 0.06536522 0.24663006 0.02128844 -0.021843717 0.15937749 -0.012013801 -0.0774067
0.20620176 -0.045825925 -0.021910008 0.030493556 0.09787452 -0.0086641405 0.06775214 0.04623892
0.018209046 0.17339301 -0.008944698 -0.13562438 -0.062340755 0.0015152304 -0.11544982 -0.14471066
-0.08451861 -0.09821065 -0.07979618 0.09451217 0.076295264 0.22724973 0.02754953 -0.002739197
0.24920838 0.1029341 -0.08088728 0.09254306 -0.22368784 0.02994132 -0.08716879 -0.11195462
-0.024396561 0.040602285 -0.22763127 -0.16007535 -0.18792409 0.10062238 0.15149353 -0.031470474
-0.008974358 0.031481717 -0.026901973 -0.12510532 0.07042987 -0.111903526 0.13913539 0.10808657
0.017165197 0.16850887 0.038529873 -0.09367674 0.06382505 -0.041826755 -0.13562702 -0.09279091
-0.09818493 0.13062963 0.11770958 -0.08389743 0.05867467 0.20929421 -0.011218592 0.12741385
0.014375859 0.05780368 -0.15462308 -0.12653935 0.09178064 -0.0018807667 -0.16347802 0.09385667
-0.11069066 0.15678956 -0.055050693 0.2412233 0.14900637 -0.025671754 0.05035728 0.296995
7.083133e-05 0.23237526 -0.07738525 -0.09346427 -0.1488061 -0.053784847 -0.18935305 -0.10086014
-0.02186648 -0.0691088 -0.19136268 0.110569805 0.011220864 0.113153465 0.1547609 -0.034566816
0.11701763 0.070817314 -0.08391271 0.12024502 -0.022131193 -0.05207938 -0.104629144 -0.055402946
00000000: f3be 693d c65d 223d 5ef8 dfbd 6058 14bc
00000010: 2151 d63b 3603 d83b 02d2 cabd 746f 3ebb
00000020: ca69 88bd 9bd9 7abd adef 1abd a9e6 dd3d
00000030: 6942 183e eedc 0f3d 8734 3d3b 0c5b 133e
00000040: cbe0 27bc 0bdb b93d e11c 163d 58c2 44bd
00000050: e5f3 fc3d ab7b 9b3c 0a20 353d dd10 c13d
00000060: 6f2c cd3d a37f 363c 180e 283d bc8d 923c
00000070: 3df4 cbbc 039b 49bd 2ac0 893b 25eb 423a
00000080: d88f 42bc 0a9f 30bd ce43 3fbc bbcd edbc
00000090: b207 12be 63d6 1ebd d26d 8cbc 054d f6bc
000000a0: 67a7 0fbd f6e3 c53c fec7 863d 3e08 3c3d
000000b0: 7cfe 623d c80d b3bd eb8c 6fbb 6bcc 313d
000000c0: 4fc1 173e 35b7 e53c 37a4 8c3d 0e8b 463e
000000d0: 885c 2e3d 449b 2c3e 2d25 38bc a751 46bd
000000e0: 153e 0c3e f007 5d3d e0df ebbb fac8 07bd
000000f0: 32d9 b2bd 4414 4a3c 1d5e 5f3d 4f25 d0bd
00000100: 13a9 cc3b 109e cc3c 3583 c2bc c112 383c
00000110: 7def 8c3d c036 bfbc f7ec 88bc 8965 083e
00000120: ba43 133e 3807 263d 11e1 95bc 2875 0f3e
00000130: 73cb 823d 0c52 c0bd 7313 92bc bbb6 acbc
00000140: 16fc 88bd 300f c03c 9d59 a0bb e8fc 183e
00000150: 3091 033e 2817 91bb 6832 e63c e412 2c3d
00000160: 4613 adbd 2ccf e93d 16b5 5cbe 4f24 cbbd
00000170: bdb1 9d3d e875 3ebe 9c2d 91bc b820 133e
00000180: 687c 583d 5910 5ebc d24e 253e 2a9d 5dbd
00000190: e88c debc 8826 33be 4018 3fbd 094f 633d
000001a0: f3bd e0bd 7407 73be c525 8b3b a3a9 29be
000001b0: 91fc eebc 9cb3 713d 4c5a 1ebe 974c 79bd
000001c0: a9ef 2ebd e8eb 53bd eb83 7bbd 31a2 92bb
000001d0: 1d0c 46bd 004f 073e 9a79 853c 30f3 133c
000001e0: 0b4f 083e 3a0a a83d 609a 863d bde1 1a3e
000001f0: 46bc 683d bfff a03d 06c5 ea3b a380 fb3d
00000200: fd2b 32be 7b67 15bd 0890 ca3d 8a3d 99bb
00000210: a820 7cbe d1c6 d2bb 7f83 47be dc1f bcbc
00000220: b41c 84bd aebd 843d 5102 b8bb 5347 033d
00000230: 6f83 973d 3f05 d53d f9ae d33c 8334 483e
00000240: c5ba 023e 33de 853d 978c 7c3e 1865 ae3c
00000250: 98f1 b2bc da33 233e 89d5 44bc 6787 9ebd
00000260: 8e26 533e f7b3 3bbd 9e7c b3bc 9fcd f93c
00000270: 7072 c83d 0af4 0dbc a2c1 8a3d 0665 3d3d
00000280: 232b 953c f08d 313e c88c 12bc 1ee1 0abe
00000290: 0559 7fbd b29a c63a f570 ecbd 082f 14be
000002a0: 1818 adbd aa22 c9bd 2e6c a3bd 998f c13d
000002b0: b140 9c3d 27b4 683e 8daf e13c 1a84 33bb
000002c0: 7b30 7f3e 1dcf d23d 3ba8 a5bd 3787 bd3d
000002d0: 6d0e 65be 8047 f53c 8d85 b2bd 7748 e5bd
000002e0: 4cdb c7bc 954e 263d 2c18 69be cbea 23be
000002f0: 2c6f 40be 1b13 ce3d 1f21 1b3e 2fe7 00bd
00000300: 3009 13bc f9f2 003d 8761 dcbc 9c1b 00be
00000310: 893d 903d ad2d e5bd 8279 0e3e 7e5c dd3d
00000320: 079e 8c3c 978d 2c3e 80d1 1d3d 97d9 bfbd
00000330: b5b6 823d 8852 2bbd cfe1 0abe 2909 bebd
00000340: 2e15 c9bd c6c3 053e b811 f13d 6ad2 abbd
00000350: da54 703d 3951 563e 2fce 37bc c778 023e
00000360: b988 6b3c 8dc3 6c3d 8355 1ebe 8893 01be
00000370: 7df7 bb3d 0f84 f6ba c866 27be ed37 c03d
00000380: c9b1 e2bd 718d 203e d67c 61bd 3e03 773e
00000390: 2095 183e 924d d2bc 6f43 4e3d bb0f 983e
000003a0: 488b 9438 c8f3 6d3e 287c 9ebd 326a bfbd
000003b0: a060 18be 804d 5cbd c4e5 41be c38f cebd
000003c0: 5521 b3bc ea88 8dbd 94f4 43be 6c72 e23d
000003d0: b7d7 373c 01bd e73d a479 1e3e ef95 0dbd
000003e0: f0a6 ef3d ab08 913d 6dda abbd 0543 f63d
000003f0: 7a4c b5bc 3051 55bd ce47 d6bd 33ee 62bd

extract_crop_representation.0.bias f4 [16]
-0.0044018044 0.03545829 -0.016461652 -0.057886858 -0.037003677 -0.034373313 -0.05817068 0.019243011
0.00055466953 0.050971583 -0.053443614 0.033566296 -0.041440316 -0.035868052 -0.02035199 -0.016742416
00000000: 033d 90bb b63c 113d 96da 86bc c51a 6dbd
00000010: 2b91 17bd 08cb 0cbd 6144 6ebd 85a3 9d3c
00000020: 3e67 113a 94c7 503d b1e7 5abd d07c 093d
00000030: 52bd 29bd 61ea 12bd 37b9 a6bc 6427 89bc

extract_crop_representation.2.weight f4 [8, 16, 3, 3]
-0.020795716 0.12590656 -0.01765136 -0.07708413 0.12386961 -0.07775669 -0.050842613 0.06824501
-0.076435946 -0.016551794 0.18027975 -0.08648711 -0.033094537 -0.08596723 -0.13326211 0.027785925
-0.013678278 -0.15357631 -0.10623887 -0.05446306 0.041385196 0.13158876 -0.0060154316 0.018527769
0.14080575 -0.06389995 0.09775844 0.16353069 -0.07140577 0.009127123 0.05441627 0.014565011
-0.08682906 0.1557698 0.0706734 0.055782717 0.2006881 0.11355402 0.1479452 -0.035736784
-0.11758306 0.10491362 0.06773587 -0.17452541 -0.071775146 0.16517769 -0.07907449 -0.20342678
0.14520445 0.05506902 -0.13060379 0.11782241 0.011830189 -0.036347155 0.09545878 0.10216496
0.16944234 -0.13447063 -0.10514654 -0.12722746 0.0762 -0.11993352 -0.040985 -0.13056482
0.0011373854 -0.0069462922 -0.108199984 -0.11603088 0.043526098 0.0023438435 0.011210695 0.07923773
-0.122853614 0.10568261 0.020108378 -0.04440599 -0.16393988 -0.07231035 0.014275216 0.069731325
-0.14468803 -0.2806852 -0.16059494 -0.06581047 0.0559051 0.106663704 0.20566624 0.037707955
0.031458765 0.07881267 0.11780806 0.0006961947 0.017599726 0.02914384 -0.117331915 0.14588071
0.026227796 -0.1094022 0.07161814 0.20698048 0.1040566 -0.03350653 0.014445836 -0.0874301
-0.034617547 0.0942511 0.05608073 -0.09205742 -0.016631844 -0.02005296 0.1672969 -0.027961267
0.14749055 -0.025903076 0.10469625 -0.031546902 0.064513445 0.017724028 0.31165865 -0.00491234
-0.039192922 -0.04460655 -0.13751367 -0.002663721 0.010138808 -0.16071732 0.23342763 -0.014484289
0.22859126 -0.17026056 -0.06480412 0.050314978 -0.076726176 -0.060104653 0.058890555 0.20630915
-0.06916393 0.07469327 0.13316396 -0.04416226 0.14026634 0.051107224 -0.18442312 0.120000854
0.09555872 0.16503318 0.090099365 0.1307854 0.07648536 0.1305527 0.019142378 0.025809377
0.044185556 0.22371678 0.21963288 -0.009856788 0.12182005 -0.022550024 -0.045747835 0.07287117
-0.059927665 0.18644544 0.096507914 0.0122171845 0.15137044 0.08235233 -0.15022452 0.021501485
0.03782668 -0.034283254 0.13065451 -0.034550708 -0.03996028 0.039640408 -0.091104865 0.03990378
-0.017575197 0.04899564 0.0014875277 0.04618817 -0.2038025 -0.15605919 -0.06533376 -0.094824396
0.09805088 -0.1405677 0.06335145 0.1881415 0.010924791 -0.25137356 -0.065463126 0.0039746608
-0.027321218 0.030933045 0.13692869 0.03201397 0.041738205 -0.030596547 -0.12191459 -0.11582811
-0.21813299 -0.060812403 0.0799921 0.008837717 0.0027882785 0.07254986 0.17069998 0.19269696
-0.029993452 0.07253477 0.17185588 -0.09556718 0.04383718 0.009173314 -0.09365781 0.18592729
0.018507352 0.003259833 0.119839706 0.055983867 -0.0492802 0.22412768 -0.039753653 0.04076778
0.08021262 0.17990418 0.025359506 0.04393568 0.06974044 -0.11094991 -0.18576863 -0.055368766
-0.15085508 -0.03912505 -0.16298062 -0.2482809 -0.085391864 -0.05065722 -0.016387751 0.09762618
-0.016824834 0.0849518 -0.10112123 -0.05123031 -0.026017673 -0.021084268 -0.077779025 0.06476038
0.1326933 0.118205115 0.12200303 0.038990725 -0.087505095 -0.09637675 -0.32682583 -0.079287775
00000000: c75b aabc a6ed 003e 9699 90bc 49de 9dbd
00000010: 5aaf fd3d e63e 9fbd 5840 50bd 0ac4 8b3d
00000020: 738a 9cbd a197 87bc 419b 383e 2720 b1bd
00000030: 238e 07bd 960f b0bd dd75 08be 4f9f e33c
00000040: db1a 60bc 1c43 1dbe c493 d9bd a814 5fbd
00000050: 8683 293d 34bf 063e 191d c5bb 8cc7 973c
00000060: 622f 103e fadd 82bd 9435 c83d 9774 273e
00000070: 303d 92bd ee89 153c 98e3 5e3d 15a2 6e3c
00000080: 6fd3 b1bd 1e82 1f3e 37bd 903d 6b7c 643d
00000090: 2e81 4d3e 038f e83d f27e 173e bc60 12bd
000000a0: 63cf f0bd f4dc d63d 1bb9 8a3d cab6 32be
000000b0: d9fe 92bd 5724 293e cef1 a1bd 1c4f 50be
000000c0: 7ab0 143e 0d90 613d 00bd 05be e04c f13d
000000d0: 69d3 413c c1e0 14bd e57f c33d dd3b d13d
000000e0: 4b82 2d3e abb2 09be 1257 d7bd ea47 02be
000000f0: bf0e 9c3d b59f f5bd e3df 27bd c9b2 05be
00000100: 5214 953a b99d e3bb f497 ddbd 99a1 edbd
00000110: 6c48 323d 2b9b 193b 10ad 373c 6447 a23d
00000120: ad9a fbbd 2070 d83d 53ba a43c 0ee3 35bd
00000130: dbdf 27be 7317 94bd 98e2 693c 4ccf 8e3d
00000140: 1929 14be f8b5 8fbe 0073 24be a4c7 86bd
00000150: bffc 643d 8072 da3d 2c9a 523e a873 1a3d
00000160: e8da 003d 8a68 a13d 5a45 f13d d680 363a
00000170: 4d2d 903c 10bf ee3c b74b f0bd c161 153e
00000180: addb d63c 430e e0bd 88ac 923d b1f2 533e
00000190: a01b d53d 253e 09bd 3aae 6c3c 8d0e b3bd
000001a0: 21cb 0dbd b906 c13d e8b4 653d 9a88 bcbd
000001b0: 813f 88bc 1b46 a4bc e14f 2b3e 070f e5bc
000001c0: c307 173e b032 d4bc fd6a d63d 5337 01bd
000001d0: a01f 843d fb31 913c b991 9f3e b2f7 a0bb
000001e0: c288 20bd 5cb5 36bd 62d0 0cbe d391 2ebb
000001f0: 3e1d 263c 1593 24be a707 6f3e 834f 6dbc
00000200: d413 6a3e c958 2ebe 06b8 84bd 1417 4e3d
00000210: 9d22 9dbd 4c30 76bd 3937 713d b542 533e
00000220: d2a5 8dbd c9f8 983d 225c 083e 7ce3 34bd
00000230: fba1 0f3e cf55 513d 6ad9 3cbe 02c3 f53d
00000240: 4ab4 c33d 75fe 283e 0486 b83d 9cec 053e
00000250: 5ba4 9c3d 9baf 053e 7ad0 9c3c 306e d33c
00000260: eafb 343d 0316 653e 71e7 603e 5e7e 21bc
00000270: ca7c f93d d4ba b8bc 1562 3bbd 7b3d 953d
00000280: b676 75bd 8eeb 3e3e f1a5 c53d 962a 483c
00000290: da00 1b3e 57a8 a83d 75d4 19be e223 b03c
000002a0: 26f0 1a3d 996c 0cbd 4cca 053e 0b85 0dbd
000002b0: 64ad 23bd fb5d 223d 3095 babd 2572 233d
000002c0: dcf9 8fbc a7af 483d 26f9 c23a ce2f 3d3d
000002d0: 9ab1 50be fbcd 1fbe b5cd 85bd 4b33 c2bd
000002e0: e6ce c83d fbf0 0fbe 68be 813d 2aa8 403e
000002f0: e5fd 323c 09b4 80be 8811 86bd df3d 823b
00000300: bfd0 dfbc 4c67 fd3c 0937 0c3e 1521 033d
00000310: aef5 2a3d 9ca5 fabc 5bae f9bd 4a37 edbd
00000320: 415e 5fbe 6d16 79bd e6d2 a33d 12cc 103c
00000330: 8dbb 363b 0595 943d facb 2e3e 5a52 453e
00000340: d4b4 f5bc 1c8d 943d fdfa 2f3e bab8 c3bd
00000350: 9d8e 333d ab4b 163c aacf bfbd b963 3e3e
00000360: bb9c 973c eca2 553b 856e f53d 574f 653d
00000370: 09da 49bd ba81 653e bad4 22bd 1efc 263d
00000380: 8446 a43d cd38 383e bdbe cf3c e6f5 333d
00000390: 13d4 8e3d b539 e3bd 223a 3ebe 5cca 62bd
000003a0: c179 1abe 9741 20bd 64e4 26be 593d 7ebe
000003b0: eee1 aebd f27d 4fbd 9b3f 86bc 3cf0 c73d
000003c0: 3cd4 89bc 36fb ad3d a618 cfbd e0d6 51bd
000003d0: 0423 d5bc eab8 acbc 9c4a 9fbd 17a1 843d
000003e0: c1e0 073e 8615 f23d b9dc f93d bdb4 1f3d
000003f0: df35 b3bd 2c61 c5bd b755 a7be a161 a2bd

extract_crop_representation.2.bias f4 [8]
-0.020001223 0.00522442 -0.07628913 -0.12818596 0.04434842 -0.10142927 -0.046866737 -0.1914914
00000000: 9bd9 a3bc 9d31 ab3b 7a3d 9cbd 2e43 03be
00000010: b0a6 353d 26ba cfbd 56f7 3fbd 5216 44be

embed_blstats.0.weight f4 [32, 12]
0.08480467 0.0017326601 -0.058025513 0.15119977 -0.8199521 0.53496826 0.56627375 -0.8495194
-0.042576756 0.22845623 -0.002116045 0.0029605853 -0.056656267 -0.013342824 -0.014962047 -0.16189584
-0.28838706 -0.19832051 0.25541523 0.0036027404 -0.017359996 -0.095521316 0.058414657 -0.081997514
-0.33665007 0.057253126 -0.03513776 0.10475574 0.79218316 -0.07061343 -0.2305272 -0.4276006
-0.8107058 0.37917587 0.1154932 0.4047847 0.08517877 0.105380386 0.036094032 0.0055253403
0.12878652 -0.39581662 -0.6218524 0.5468258 -0.22137508 0.32069626 -0.20739976 -0.11635922
0.28493318 -0.48852864 0.21227807 0.0921215 -0.5608752 0.8811532 -0.09382135 0.22297831
0.0074174283 -0.122187816 0.61118436 0.37996095 0.29972658 0.09284806 -0.37797424 -0.3101471
-0.23838712 0.096109465 -0.39943048 0.8614564 0.5207323 0.3197149 -0.3101138 -0.69998485
-0.25392073 -0.29717278 -0.031064682 0.27745095 0.6111075 0.33593017 -0.038648892 0.30098867
-0.034697924 -0.91256607 0.4134323 0.039737877 0.14020315 -0.42741635 0.46313676 0.29107937
-0.84732646 0.74676263 -0.069781825 -0.29692107 0.17414919 -0.3730372 0.20387833 0.46887305
-0.33508822 0.2569973 -0.09170574 0.52348566 0.75515866 -0.22266686 0.22072195 -0.24438694
-0.26993078 0.16687943 -0.2319257 0.26920468 -0.12614816 0.11884218 0.48411322 0.70211256
-0.049664814 0.39325562 0.0899086 -0.25309083 0.07222058 0.08704956 0.52163297 0.51196516
0.072873525 0.336129 -0.37352678 0.07659031 -0.2811508 -0.112549625 0.680426 -0.9229345
0.09111515 0.42127275 0.0864764 0.35276544 0.17256644 -0.24768706 -0.25087154 0.11510771
-0.14536141 -0.03296697 -0.12490413 -0.13478145 -0.051841386 -0.14311382 0.04467274 -0.1225891
-0.18848917 -0.37328282 0.032704268 0.6105217 0.011359894 0.25789022 0.006346612 -0.47181085
-0.011467963 0.18101017 -0.08211701 0.64776874 -0.29799396 -0.033642326 -0.072729 -0.22729915
-0.03143442 -0.18309064 -0.123401985 0.041442897 -0.381729 -0.09355747 0.010541414 -0.27886596
0.31691274 0.33834696 0.21647117 0.37195614 -0.49416625 0.14337708 0.3462628 -0.8654977
0.17065293 0.14187758 -0.33536866 0.11409317 0.39616755 0.4581218 -0.8279549 0.0351423
-0.29783714 -0.35490736 0.36677784 0.16230911 0.32048354 0.41897318 -0.4879889 -0.35935548
0.41327524 0.46515054 -0.9071273 -0.69006974 -0.009124054 -0.2337503 0.26323882 0.48515272
0.20619948 0.16199957 -0.7320151 -0.2420247 0.5370649 0.6008362 -0.60532635 -0.68538094
0.10754847 -0.39133897 -0.23661084 0.6758897 0.2178112 0.2014029 -0.12646441 -0.28211632
-0.555426 0.6132422 0.079182416 0.2622721 0.51970243 0.2170474 -0.12977974 -0.43099973
-0.7755256 0.18137148 0.22119135 0.004339053 0.008275017 0.23633088 -0.28240955 0.07840054
0.5538952 -0.48471433 -0.41038936 0.83730286 0.16711447 0.36841616 -0.02253308 -0.32486236
-0.07019084 0.31034532 -0.09743577 -0.4632057 0.26525873 -0.017292213 -0.2506554 0.59350526
-0.14491999 0.659095 0.055097513 -0.28530604 0.118548386 -0.06181368 0.32347172 0.41720927
00000000: 12ae ad3d 6d1a e33a 29ac 6dbd 1dd4 1a3e
00000010: 61e8 51bf aef3 083f 51f7 103f 1a7a 59bf
00000020: f764 2ebd 6ef0 693e 58ad 0abb 6106 423b
00000030: 6710 68bd dc9b 5abc 6023 75bc 06c8 25be
00000040: 78a7 93be 8814 4bbe c9c5 823e f41b 6c3b
00000050: 8d36 8ebc aea0 c3bd 3544 6f3d 50ee a7bd
00000060: 665d acbe 4182 6a3d 9dec 0fbd 2d8a d63d
00000070: 84cc 4a3f c69d 90bd 530f 6cbe 77ee dabe
00000080: 6a8a 4fbf 5723 c23e b387 ec3d f13f cf3e
00000090: 3572 ae3d acd1 d73d 56d7 133d ea0d b53b
000000a0: 9de0 033e 7aa8 cabe b831 1fbf c7fc 0b3f
000000b0: 26b0 62be 4d32 a43e 9a60 54be be4d eebd
000000c0: c3e2 913e 6d20 fabe 6c5f 593e 32aa bc3d
000000d0: 8495 0fbf 4293 613f 6825 c0bd 6d54 643e
000000e0: e60d f33b 9b3d fabd 9476 1c3f 3e8a c23e
000000f0: c375 993e 2027 be3d d785 c1be 9acb 9ebe
00000100: c11b 74be 0ad5 c43d 2782 ccbe 6888 5c3f
00000110: b64e 053f acb1 a33e 3cc7 9ebe 3532 33bf
00000120: e601 82be 0827 98be 5c7b febc 0d0e 8e3e
00000130: 8b71 1c3f 0aff ab3e 4d4e 1ebd 301b 9a3e
00000140: 691f 0ebd ee9d 69bf 66ad d33e 2fc4 223d
00000150: 6a91 0f3e 51d6 dabe 4320 ed3e 5b08 953e
00000160: 63ea 58bf d62b 3f3f c6e9 8ebd 0a06 98be
00000170: 2a54 323e bbfe bebe 7bc5 503e 2110 f03e
00000180: af90 abbe 2695 833e 38d0 bbbd 2803 063f
00000190: 1452 413f c802 64be ef04 623e 9240 7abe
000001a0: 5e34 8abe 71e2 2a3e ee7d 6dbe 32d5 893e
000001b0: fc2c 01be 8763 f33d b0dd f73e a6bd 333f
000001c0: 556d 4bbd cd58 c93e 0022 b83d 1f95 81be
000001d0: 62e8 933d 0a47 b23d bd89 053f 2610 033f
000001e0: b73e 953d 1a19 ac3e e73e bfbe 61db 9c3d
000001f0: fff2 8fbe 6b80 e6bd 6630 2e3f 6f45 6cbf
00000200: 949a ba3d 10b1 d73e 8a1a b13d ac9d b43e
00000210: 42b5 303e ada1 7dbe 3c72 80be 97bd eb3d
00000220: 9fd9 14be 6008 07bd bdcd ffbd 2604 0abe
00000230: a257 54bd 6e8c 12be c3fa 363d fe0f fbbd
00000240: 4e03 41be ed1e bfbe e9f4 053d 264b 1c3f
00000250: d91e 3a3c 300a 843e 3df7 cf3b 3191 f1be
00000260: 20e4 3bbc bb5a 393e f72c a8bd 2cd4 253f
00000270: aa92 98be 89cc 09bd f1f2 94bd 1cc1 68be
00000280: 61c1 00bd 1d7c 3bbe 2eba fcbd 07c0 293d
00000290: fc71 c3be 0f9b bfbd e5b5 2c3c 85c7 8ebe
000002a0: 6342 a23e d03b ad3e 9eaa 5d3e 0971 be3e
000002b0: 5c03 fdbe 71d1 123e 5c49 b13e 4291 5dbf
000002c0: a4bf 2e3e 5b48 113e 71b5 abbe aea9 e93d
000002d0: 79d6 ca3e f18e ea3e daf4 53bf 5ff1 0f3d
000002e0: 1c7e 98be 6bb6 b5be 4eca bb3e 5c34 263e
000002f0: 6b16 a43e a783 d63e aed9 f9be 71fd b7be
00000300: d098 d33e 3628 ee3e 7f39 68bf 69a8 30bf
00000310: 0e7d 15bc 3d5c 6fbe 3dc7 863e f065 f83e
00000320: f525 533e 37e3 253e 5765 3bbf 53d5 77be
00000330: 167d 093f 67d0 193f abf6 1abf 2075 2fbf
00000340: 5f42 dc3d 955d c8be 1d4a 72be 1b07 2d3f
00000350: e609 5f3e 903c 4e3e e37f 01be 8d71 90be
00000360: 6630 0ebf 71fd 1c3f 642a a23d 8748 863e
00000370: 380b 053f ac41 5e3e fbe4 04be ffab dcbe
00000380: d988 46bf 72b9 393e fc7f 623e 9d2e 8e3b
00000390: f093 073c b900 723e fc97 90be 7690 a03d
000003a0: 13cc 0d3f 7a2c f8be 8e1e d2be 7b59 563f
000003b0: 0e20 2b3e 0ba1 bc3e 4b97 b8bc 5c54 a6be
000003c0: 37c0 8fbd 95e5 9e3e 688c c7bd 4c29 edbe
000003d0: fecf 873e 66a8 8dbc e855 80be f6ef 173f
000003e0: e865 14be 73ba 283f eead 613d a213 92be
000003f0: 7fc9 f23d 5730 7dbd 169e a53e 749c d53e

embed_blstats.0.bias f4 [32]
0.28069386 -0.28265238 0.061553497 0.22090022 0.29343098 0.49921474 -0.2066627 0.3394285
0.21506919 0.06555719 0.1728832 -0.1435429 0.04797494 -0.022692291 0.16867022 0.1565805
-0.081658594 0.00819477 -0.12382355 0.33586958 0.48194176 0.12809159 0.23603366 -0.04239507
0.03754125 0.007507223 0.10005773 0.36772564 0.39347953 0.36595958 -0.21627502 0.34847984
00000000: 1bb7 8f3e d0b7 90be 851f 7c3d ab33 623e
00000010: 963c 963e 1399 ff3e 639f 53be 93c9 ad3e
00000020: 193b 5c3e d942 863d 4b08 313e e9fc 12be
00000030: 5f81 443d 2fe5 b9bc e3b7 2c3e a356 203e
00000040: 9f3c a7bd 5b43 063c 3497 fdbd 19f7 ab3e
00000050: 12c1 f63e 712a 033e cfb2 713e 74a6 2dbd
00000060: dbc4 193d 27ff f53b 11eb cc3d 8946 bc3e
00000070: 2676 c93e 0e5f bb3e 3377 5dbe f36b b23e

embed_blstats.2.weight f4 [32, 32]
0.15314338 -0.005016086 -0.11357035 -0.12434098 0.7760023 -0.09064998 0.43553835 0.6440168
-0.025868477 0.14156716 -0.37180126 -0.012389945 0.28808248 0.11429662 -0.2902511 -0.47598124
-0.32401186 -0.22362058 0.025578313 -0.38770446 -0.6192127 0.6924389 0.091142744 -0.09768094
-0.45324904 0.07998793 0.14988194 -0.15420328 0.11137217 -0.15986605 -0.14568181 0.44057143
0.47184914 0.16376466 -0.4462958 -0.36575773 0.060509313 -0.37245694 -0.12630661 0.009799899
-0.09836536 0.1325241 0.40746173 -0.0442878 0.18868282 0.0050178804 0.32412946 0.2340968
0.10581098 -0.13042039 -0.17197916 -0.47363403 0.012425339 0.20762694 -0.23386881 0.16212083
0.36426666 0.12745343 -0.19334225 0.276909 -0.37242112 -0.11694617 0.00970711 -0.060646787
-0.11417675 -0.10141686 -0.050535496 0.07364521 -0.10140141 -0.10012523 0.11598279 -0.028493887
0.036420256 0.007519346 -0.16035679 -0.14737223 -0.01950884 -0.020971555 -0.027066711 0.11655913
0.15583532 0.07933245 0.07304209 -0.15019727 0.040232055 -0.06439192 -0.17007405 -0.009580673
0.012492303 0.058114026 -0.23469654 -0.13602859 -0.09090767 -0.16048792 0.10934432 -0.07003299
0.32415637 -0.058556892 -0.17640719 -0.25321147 -0.06221592 0.0063876626 0.031101704 0.19525516
0.07497813 -0.028453248 0.3109711 -0.09174944 -0.0053046704 -0.15753068 0.13595955 0.31487304
0.3538602 -0.037980165 -0.21612059 -0.109601006 -0.22276214 -0.1869729 0.037957422 0.39171034
0.4017809 0.118313305 -0.488211 0.37330225 -0.23386079 -0.0560676 -0.13097395 -0.4236022
-0.005950798 -0.12716429 -0.1587904 -0.1442451 -0.17579547 0.08407609 0.11974887 0.11878745
0.053103786 -0.16694303 -0.1465442 -0.13178304 0.07840045 -0.16660027 -0.06370066 -0.10985292
-0.13011411 0.1522583 -0.10292924 -0.16037354 0.094127886 -0.16646686 0.03236724 0.030136114
-0.005658404 0.08532461 0.011808598 0.009115394 0.16823424 -0.037179925 0.15478244 -0.0438531
-0.068481945 0.06972798 -0.23769243 -0.17492424 -0.1181139 -0.08106889 -0.061395686 -0.09562674
-0.081878535 0.060411595 0.11488274 0.069739565 -0.041517824 0.16723152 0.13727313 0.08123895
-0.22604057 -0.21196166 0.23401913 -0.070530444 0.11776452 -0.103372686 0.015108286 -0.044420026
-0.060694583 0.08995417 -0.08336133 -0.1347225 0.008607435 0.0723298 0.13673846 -0.13535987
-0.16251878 -0.114491045 -0.24147618 0.34191972 0.044517793 0.6304507 0.2405363 -0.3977669
-0.28774047 -0.24088001 -0.061904658 0.04484456 -0.21566263 0.0230203 -0.028106414 0.1595991
0.43805024 0.60910916 -0.042453967 0.48617083 0.41286585 0.23709889 0.65394855 0.38704944
0.07496575 -0.13219084 0.32937452 0.32908118 -0.19618332 0.7134902 0.0045575574 0.28567868
0.1013894 -0.05530463 -0.079111315 -0.12004984 -0.23311357 -0.10481062 0.04162951 0.095044814
-0.18345182 -0.16556884 0.026540412 0.12806684 -0.0035205644 -0.08509994 -0.028424706 0.08837002
0.014015628 -0.09153812 0.107626006 0.07382619 0.10478736 -0.1113882 0.111226596 -0.12331326
-0.025602188 -0.018254811 -0.09571294 0.014563594 -0.16616574 -0.14031482 -0.17806566 -0.19821262
00000000: 9ed1 1c3e fb5d a4bb 9297 e8bd 7ca6 febd
00000010: 16a8 463f b2a6 b9bd e2fe de3e 49de 243f
00000020: 21ea d3bc fbf6 103e bc5c bebe 32ff 4abc
00000030: 8c7f 933e 5914 ea3d cb9b 94be d0b3 f3be
00000040: e2e4 a5be cbfc 64be 9c89 d13c 3381 c6be
00000050: b984 1ebf ad43 313f 0ca9 ba3d f20c c8bd
00000060: 4210 e8be b6d0 a33d a77a 193e 77e7 1dbe
00000070: 1817 e43d edb3 23be 9d2d 15be 9492 e13e
00000080: 3696 f13e ecb1 273e e280 e4be 9944 bbbe
00000090: 9dd8 773d adb2 bebe 8556 01be c18f 203c
000000a0: c773 c9bd 66b4 073e d39e d03e 2067 35bd
000000b0: 1236 413e 086d a43b 4cf4 a53e 12b7 6f3e
000000c0: 6db3 d83d ec8c 05be 4e1b 30be 2980 f2be
000000d0: a693 4b3c 289c 543e 4e7b 6fbe 0103 263e
000000e0: 2981 ba3e 2783 023e 83fb 45be 04c7 8d3e
000000f0: fbad bebe 7981 efbd 920a 1f3c c468 78bd
00000100: 80d5 e9bd a5b3 cfbd 4ffe 4ebd 4dd3 963d
00000110: 8bab cfbd 750e cdbd 6388 ed3d 036c e9bc
00000120: 682d 153d d964 f63b 9234 24be bfe8 16be
00000130: 01d1 9fbc 8acc abbc 02bb ddbc 8eb6 ee3d
00000140: 4b93 1f3e 0d79 a23d 1797 953d 50cd 19be
00000150: 5eca 243d e9df 83bd e427 2ebe 41f8 1cbc
00000160: 84ac 4c3c f908 6e3d 4a54 70be 144b 0bbe
00000170: cd2d babd f256 24be eaef df3d 756d 8fbd
00000180: d3f7 a53e 5ad9 6fbd 16a4 34be efa4 81be
00000190: 1fd6 7ebd 994f d13b 00c9 fe3c f8f0 473e
000001a0: 228e 993d c916 e9bc 9b37 9f3e 21e7 bbbd
000001b0: cdd2 adbb b94f 21be fb38 0b3e 0a37 a13e
000001c0: 2a2d b53e 1791 1bbd b74e 5dbe 7e76 e0bd
000001d0: c21b 64be d375 3fbe 3e79 1b3d 428e c83e
000001e0: 3ab6 cd3e 3f4e f23d cbf6 f9be 7921 bf3e
000001f0: 3479 6fbe 24a7 65bd 091e 06be 63e2 d8be
00000200: e9fe c2bb 5b37 02be f399 22be fdb4 13be
00000210: ba03 34be 1630 ac3d e53e f53d d646 f33d
00000220: 5b83 593d 1df3 2abe af0f 16be 22f2 06be
00000230: 6a90 a03d 4399 2abe 7e75 82bd 91fa e0bd
00000240: a23c 05be 9ae9 1b3e 91cc d2bd f638 24be
00000250: 1fc6 c03d 4a76 2abe 8393 043d 03e0 f63c
00000260: 226a b9bb abbe ae3d da78 413c bc58 153c
00000270: 9945 2c3e fa49 18bd 4a7f 1e3e 4f9f 33bd
00000280: 4340 8cbd 8bcd 8e3d a565 73be 571f 33be
00000290: b3e5 f1bd 7207 a6bd 0b7a 7bbd f4d7 c3bd
000002a0: efaf a7bd 2672 773d a447 eb3d 9ed3 8e3d
000002b0: 980e 2abd bd3e 2b3e 5491 0c3e 9b60 a63d
000002c0: 2e77 67be 7a0c 59be b6a2 6f3e 4472 90bd
000002d0: 862e f13d 0fb5 d3bd bf88 773c c6f1 35bd
000002e0: e29a 78bd e439 b83d 58b9 aabd b2f4 09be
000002f0: 3306 0d3c a521 943d 2b05 0c3e c79b 0abe
00000300: 536b 26be 487a eabd 8845 77be 1a10 af3e
00000310: 4a58 363d 3865 213f 264f 763e 1aa8 cbbe
00000320: b852 93be 40a9 76be bd8f 7dbd eeae 373d
00000330: aad6 5cbe 1195 bc3c 6c3f e6bc f26d 233e
00000340: 1f48 e03e 94ee 1b3f 36e4 2dbd 62eb f83e
00000350: 2763 d33e 0dca 723e 2c69 273f 582b c63e
00000360: a587 993d 095d 07be c7a3 a83e 547d a83e
00000370: 48e4 48be 4ba7 363f 9057 953b 7a44 923e
00000380: 3fa5 cf3d 1c87 62bd 1d05 a2bd b1dc f5bd
00000390: 53b5 6ebe f3a6 d6bd b483 2a3d dba6 c23d
000003a0: cbda 3bbe e18a 29be 476b d93c f423 033e
000003b0: 45b9 66bb e148 aebd eeda e8bc 57fb b43d
000003c0: cea1 653c 5678 bbbd 066b dc3d 2f32 973d
000003d0: c19a d63d 7f1f e4bd c5ca e33d aa8b fcbd
000003e0: aebb d1bc 1d8b 95bc 2505 c4bd 249c 6e3c
000003f0: 5a27 2abe b0ae 0fbe d856 36be 40f8 4abe

embed_blstats.2.bias f4 [32]
0.10769889 0.3151724 0.016783625 0.025765076 -0.14514118 -0.23368658 0.2250195 -0.19006744
0.046080664 0.03989401 0.11336667 0.1333263 0.32486695 0.021863569 -0.099452466 -0.013452142
0.17315398 0.27790016 -0.13667905 0.32178316 0.10329068 0.08129015 0.4982141 -0.055133536
0.18568188 -0.15086237 0.24423482 0.3245288 0.027596707 0.24565183 -0.1802979 0.17427322
00000000: 3c91 dc3d 475e a13e d07d 893c 4811 d33c
00000010: e49f 14be 894b 6fbe 836b 663e 0aa1 42be
00000020: 14bf 3c3d e767 233d c92c e83d b186 083e
00000030: f654 a63e 3a1b b33c bcad cbbd 5f66 5cbc
00000040: 474f 313e ee48 8e3e 98f5 0bbe c3c0 a43e
00000050: 108a d33d 737b a63d eb15 ff3e b4d3 61bd
00000060: 6423 3e3e aa7b 1abe b118 7a3e a428 a63e
00000070: 7d12 e23c 278c 7b3e 03a0 38be ae74 323e
