Actor Critic Code and Agents/Actor Critic - Limited Actions Agent/models/ACLimitedActionsAgent.pth (torch, 532192 bytes, 22 tensors)

crop.width_grid f4 [3, 3]
000000 00 00 00 bf 00 00 80 be 00 00 00 00 00 00 00 bf
       -0.5 -0.25 0.0 -0.5
000010 00 00 80 be 00 00 00 00 00 00 00 bf 00 00 80 be
       -0.25 0.0 -0.5 -0.25
000020 00 00 00 00
       0.0

crop.height_grid f4 [3, 3]
000000 00 00 00 bf 00 00 00 bf 00 00 00 bf 00 00 80 be
       -0.5 -0.5 -0.5 -0.25
000010 00 00 80 be 00 00 80 be 00 00 00 00 00 00 00 00
       -0.25 -0.25 0.0 0.0
000020 00 00 00 00
       0.0

embed.weight f4 [16, 32]
000000 95 70 11 be 4b a7 d3 3d 5c cf 85 3f c2 0d 9b bf
       -0.14203103 0.10334643 1.0453906 -1.2113574
000010 43 67 19 3f 3c a1 2f 3e aa 72 6c 3e 2a d2 94 3c
       0.5992319 0.1715135 0.23090616 0.01816662
000020 87 f2 43 bf bc 0b e6 3f a7 25 f6 3e f9 1c 15 3e
       -0.7654194 1.7972331 0.480756 0.14561833
000030 1b 7c 08 be c1 e7 36 3f f2 38 70 3e 02 89 24 3e
       -0.13328592 0.7144738 0.23459223 0.1606789
000040 1f 77 40 3d d1 b1 84 3d 30 5f 63 3f e0 1a 03 bd
       0.046988603 0.06479228 0.8881712 -0.032008052
000050 00 bd f6 bc 98 ed e9 be 12 3b 4d bd d0 4a 85 3f
       -0.03011942 -0.45689082 -0.050105162 1.0413456
000060 9b 2e 1d 3e 55 36 af bc e5 75 46 3d d9 53 b3 3f
       0.1534981 -0.021388212 0.048452277 1.4009963
000070 a8 f7 8b bf 4a e3 f1 be ab b6 d0 3e 69 f5 8a 3f
       -1.0934954 -0.4724372 0.40764365 1.0856143
000080 bb a2 c5 be 01 71 90 3f 57 39 07 bf 7d 29 07 bf
       -0.38600716 1.1284486 -0.5282187 -0.5279768
000090 50 cb 81 bf 0c c4 b4 3f 85 74 e8 bc 5d 89 a9 be
       -1.0140171 1.4122329 -0.028375873 -0.33112612
0000a0 e5 ac 86 3f 55 da 84 3d 26 ec 63 3f 4f 0f 85 be
       1.0521513 0.06486956 0.8903221 -0.25988242
0000b0 a9 b3 5f bf c4 64 40 be d9 c1 bd 3f 81 d1 2f 3f
       -0.87383515 -0.18788439 1.4824783 0.6867905
0000c0 bb a9 10 3e 5a 2a c0 bf 0f 94 cb 3f a7 b7 44 c0
       0.14127247 -1.5012925 1.5904559 -3.0737092
0000d0 96 d1 5f bf 18 36 87 3d 45 30 9e 3f 37 a0 d2 3f
       -0.8742918 0.066021144 1.2358481 1.6455144
0000e0 19 db df bf 84 49 ee 3e fe 76 55 bf d3 03 04 40
       -1.7488738 0.46540463 -0.8338469 2.0627334
0000f0 a6 65 08 3d 70 41 96 3d e5 83 fa 3d 8e 54 11 c0
       0.033300065 0.073367 0.12232188 -2.2707858
000100 a0 c9 16 3e 57 45 84 bf 79 7c 8f bf a9 ba d5 3f
       0.14725351 -1.0333661 -1.1209861 1.6697589
000110 af 3b 2c 3f 88 3b 6d bf f2 c8 2e bf 1c bb ad 3f
       0.6727857 -0.9266896 -0.6827537 1.3572726
000120 31 6e 9c 3f 77 cc 24 be 98 4f 42 3f 0b 04 d7 3e
       1.2221128 -0.16093622 0.759027 0.41995272
000130 a3 d3 23 c0 0b f6 7a bf 0a 77 1b bf 19 7e bb 3e
       -2.5597923 -0.9803168 -0.60728514 0.36619642
000140 5f a3 c3 3e 4a ae 41 be bc 38 ea 3f 6f e5 a5 3f
       0.3821058 -0.18914142 1.8298564 1.2960643
000150 d9 c5 98 bf 44 2d 10 be c3 59 9f 3f 29 a9 6e 3e
       -1.1935378 -0.14079767 1.2449268 0.23306717
000160 be 82 0b 3e 55 83 df 3e df a3 37 bf 34 59 25 be
       0.13624093 0.43654886 -0.7173442 -0.1614731
000170 84 bd 08 be d9 26 57 3f d5 cd 71 3e b5 20 86 bf
       -0.13353544 0.8404365 0.23613675 -1.0478731
000180 6b 53 a1 3f 62 11 2d 3f e1 e7 0d c0 52 ca a9 bf
       1.2603582 0.6760465 -2.2172778 -1.3264868
000190 cb 4c 9f bf cf 14 18 bf 1d 5d 56 3f c0 d2 ab 3f
       -1.244531 -0.5940675 0.8373583 1.3423691
0001a0 6a 88 01 3f 09 4d 09 bf f2 c7 18 c0 38 13 b7 bf
       0.50598776 -0.5363317 -2.3872037 -1.430274
0001b0 c2 0c 9d be 58 80 99 3f c3 fd a9 be 9a a3 31 bf
       -0.30673796 1.1992292 -0.33201417 -0.6939026
0001c0 89 e6 24 c0 46 75 ab 3f 80 4b b4 bf 17 08 dc bd
       -2.5765707 1.3395164 -1.4085541 -0.107437305
0001d0 c9 f7 a3 3e 28 2f 0b 3f 98 9c 94 3e a0 a7 39 3e
       0.32024983 0.5436883 0.29025722 0.1813035
0001e0 cf 6e 22 bf 76 00 f4 be 98 a3 27 bf d9 cb c9 3d
       -0.6345033 -0.47656602 -0.65484 0.09853334
0001f0 61 73 30 3f 93 49 3f 3f 1a cc f9 bf a8 8a 2d 3f
       0.68926054 0.7472164 -1.9515412 0.677897
000200 49 aa 78 3f aa 72 19 bd e2 c3 1c be e1 ba de 3e
       0.97134835 -0.037462868 -0.15309098 0.43501952
000210 f2 58 6a 3f 7b b1 07 3f 72 4d 6c 3d 27 f5 88 3e
       0.9154197 0.5300519 0.057691045 0.26749536
000220 f3 90 aa bf 20 04 05 bf 3f 69 b4 3f b4 c0 58 3f
       -1.3325485 -0.5195942 1.4094619 0.8466904
000230 54 07 a8 bf 17 9d af bf 27 42 1d 40 46 82 a6 3f
       -1.3127236 -1.3719815 2.4571626 1.3008506
000240 95 e3 58 bf 9d 79 3a 3d dc 48 92 be 81 83 85 be
       -0.8472226 0.045526136 -0.28571212 -0.26076892
000250 c3 6d ed be cc 95 43 bf 11 c3 da 3e a8 c7 81 3f
       -0.46372804 -0.76400447 0.4272695 1.0139055
000260 9a 51 a0 3f 32 a5 3d bf 77 ff 12 bf 90 87 6c bf
       1.2524903 -0.74080193 -0.5742106 -0.9239435
000270 d6 71 8c 3e 6e 7e 50 bf 5c 28 92 bf 45 49 42 3f
       0.274306 -0.81442916 -1.1418567 0.7589305
000280 d9 ea 34 3f ef d3 d7 bf 2d f1 32 c0 0a 54 21 3f
       0.7067085 -1.6861552 -2.7959702 0.6301886
000290 26 57 0b 40 c5 9b f1 bf 33 38 f5 3e fd 0d 87 3e
       2.177194 -1.8875662 0.4789444 0.2637786
0002a0 34 ff 97 3e 30 b8 3b 3f 92 1e a2 3f 39 2e 51 3d
       0.29686892 0.7332792 1.2665579 0.051069472
0002b0 cf 4a a9 bf 1a ac c5 bf 8d 0e 90 bf a2 77 a4 3e
       -1.3225955 -1.5443146 -1.125444 0.32122523
0002c0 d4 96 45 3f 41 2c c4 be 95 9f 7e bf 13 bb a6 bf
       0.7718327 -0.38315013 -0.9946225 -1.302584
0002d0 e3 25 84 3f 1f 14 f8 3e c6 d8 a3 3f bc 02 bd bd
       1.0324062 0.4845285 1.2800529 -0.09229037
0002e0 82 82 1e 40 a5 30 94 be 23 0b 1c be 55 8a 7e 3f
       2.4767156 -0.28943363 -0.15238623 0.9942983
0002f0 ed 93 56 3e 68 a9 20 bf 5a 90 02 3f 71 44 01 40
       0.20954867 -0.62758493 0.51001513 2.0198023
000300 91 04 a0 bf d8 3c 30 3f 84 d8 6f be 39 3d 57 3f
       -1.2501394 0.6884284 -0.23422438 0.84077793
000310 b9 eb 3d 3f 09 e6 03 3f 3e 9a 0f bf 51 94 fc 3e
       0.7418781 0.5152288 -0.5609473 0.49331906
000320 6f 17 2b bf 0b 05 4e 3f 16 26 ac 3e 82 ee 6b 3f
       -0.6683263 0.80476445 0.33622807 0.9216081
000330 2f c9 69 bf 86 ce 17 bf 69 30 d3 3f 35 f9 2f be
       -0.91322607 -0.59299505 1.6499149 -0.17184909
000340 27 ab 2c c0 75 70 18 3e f8 0a 7c bf 74 45 3c bf
       -2.6979463 0.14886649 -0.98454237 -0.7354348
000350 b9 ae 37 3e f1 0b 66 3e 1e 7b 73 bf 00 44 0d c0
       0.17937745 0.22465493 -0.95109737 -2.2072754
000360 c4 91 6a bc f2 d1 a4 bf 0c fc da 3e 89 a9 c2 be
       -0.01431698 -1.287657 0.42770422 -0.3801997
000370 7c 89 5f bd 4a 6c 86 bf 00 65 02 3f 11 1f c1 3f
       -0.054574475 -1.0501797 0.50935364 1.5087606
000380 93 62 ef 3e 4d 66 02 bf 87 fd 86 3e c1 b4 51 3e
       0.46754894 -0.5093735 0.263653 0.20479108
000390 31 31 29 bf e4 bd 65 3e 3a 4d 16 be 2f 56 78 3d
       -0.66090685 0.22435719 -0.14677897 0.060629066
0003a0 a6 64 0c c0 6a 10 80 bf 4b a6 c5 bf 3b 33 15 bf
       -2.193643 -1.0005009 -1.5441374 -0.58281296
0003b0 86 1f 17 bf b4 21 d4 bf 11 22 43 be 3b 8f 7a be
       -0.59032476 -1.6572785 -0.19055964 -0.244687
0003c0 67 97 da 3e 1c 5a 9c 3e 99 8e 1a 3f c5 44 0d bf
       0.42693636 0.30537498 0.60373837 -0.5518306
0003d0 ea c0 d1 bd 3f 3c a7 bd 96 ef 8c bf 4a 22 73 be
       -0.102418736 -0.08165788 -1.1010616 -0.23743549
0003e0 c7 1c 05 3f d7 02 e6 be 0a 6f 11 3f 9e f3 bd 3e
       0.51997036 -0.44924042 0.5681006 0.37099928
0003f0 cd ec 86 be 37 b7 ce bf 7f ca 89 bd 0f e0 d3 bd
       -0.2635254 -1.6149663 -0.06728076 -0.1034547

extract_representation.0.weight f4 [16, 32, 3, 3]
000000 fe 5e 02 3e f5 c0 b4 3d df 0f cc 3d 04 1f 37 3d
       0.12731549 0.08825866 0.09963965 0.044707313
000010 57 c8 a7 3d 5d 4e 6b 3d 3f 9f 06 3a 6b 39 ba bd
       0.08192509 0.05744778 0.0005135424 -0.09092983
000020 36 3b 21 3e 1e 3b f7 bd e0 c3 df bc 4c 01 59 bd
       0.15745243 -0.120718226 -0.02731508 -0.052979752
000030 31 36 6e bd 9c 0b b0 bd 99 1d cf 3c e2 e5 9c bd
       -0.05815715 -0.08595964 0.025282668 -0.07661034
000040 08 85 12 bd dc d6 06 be 61 2a 11 bd b9 68 a5 bd
       -0.0357714 -0.131679 -0.035440806 -0.08076615
000050 10 92 a7 bd 62 11 36 bc 34 a7 a0 bd 39 78 8e bc
       -0.08182156 -0.011112543 -0.078443915 -0.017391311
000060 d8 15 aa bd cd 18 0c be 53 7e 0c 3c 70 84 db 3d
       -0.083049476 -0.13681336 0.00857504 0.1071862
000070 6b 68 4d 3d a9 70 8a 3d 4e 60 47 bd 53 87 cb 3d
       0.05014841 0.067597695 -0.048675828 0.099379204
000080 62 d3 62 3d 2a c8 e8 3c 6f 52 0f 3e cb f2 95 3d
       0.05537737 0.028415758 0.1399629 0.073217
000090 2e fa 1e be 88 de 5b bd 3e c9 fa bd d3 92 07 bc
       -0.15525123 -0.05367902 -0.12245415 -0.008274752
0000a0 38 9b 23 be b1 dd a9 bc 54 3f cc bb c1 f7 2e 3d
       -0.1597718 -0.020735594 -0.0062331352 0.042716745
0000b0 61 5c 61 bd 23 44 a1 bd 40 ee 9b bd 51 cc 88 bd
       -0.05501974 -0.07874324 -0.07613802 -0.06679595
0000c0 93 c4 07 be 01 d5 b3 bd 64 2a a8 bd bd d4 d8 bd
       -0.13258581 -0.08780862 -0.0821121 -0.105874516
0000d0 e3 7b 8d bd 97 9b 08 bd cc c4 5f be b0 d1 c9 bd
       -0.06908395 -0.033351507 -0.21852416 -0.09854448
0000e0 2b fe d8 bd ab 3e bd 3c 43 5c 28 be 0a ad 79 bd
       -0.10595354 0.023101171 -0.16441445 -0.06095604
0000f0 79 a9 d0 bb 96 40 9f bb 76 06 a5 bd a3 43 8b bd
       -0.006367859 -0.004859994 -0.08057873 -0.0680001
000100 73 e0 7d bd f4 1f 1e 3d c1 ac 75 bc 6d 9f 4c bc
       -0.06198163 0.03860469 -0.014994801 -0.012489182
000110 e2 ed 28 bd 68 00 12 bd 93 f2 bc 3d aa cd 83 bd
       -0.041242488 -0.03564492 0.09225955 -0.06435712
000120 0d 37 83 3d 31 b2 9b 3d 12 d1 97 3d 81 cf 86 3d
       0.064069845 0.07602347 0.07412924 0.06582547
000130 96 59 a1 3d 26 7f 0a 3d b6 e8 8f 3c 08 f5 0b 3e
       0.07878415 0.033812664 0.01756702 0.13667691
000140 ef f8 1c 3d be fb 49 be f3 33 84 bd 7f cc 05 be
       0.03832334 -0.19724938 -0.06455221 -0.1306629
000150 15 48 fe 3c d0 bc b6 bd 54 55 01 bd 59 d6 f5 bc
       0.03104023 -0.08922732 -0.031575516 -0.030009435
000160 8b 0b d3 bd c1 ed ca bd 36 9c ee bd fd 3a f7 bd
       -0.10304936 -0.09908629 -0.116508886 -0.12071798
000170 fe 6d 89 bd 20 67 00 bd 52 ea e4 bd 90 44 e2 bc
       -0.067104325 -0.031348348 -0.111775056 -0.027620584
000180 b8 66 00 bd 1e 72 d0 3d 9d 06 1d be df 7c d8 bd
       -0.03134796 0.10178016 -0.15334554 -0.10570692
000190 89 3a 3d bd 4e d0 2c bd 06 fe 18 bd 92 a5 d1 bd
       -0.0461984 -0.042190842 -0.03735163 -0.10236658
0001a0 ad 33 cd bb 99 92 77 3c 05 94 27 3d 31 72 82 bd
       -0.0062622637 0.015110635 0.040912647 -0.063694365
0001b0 b7 0a d6 3c 44 86 bf 3d 91 ab 7f 3d 81 11 10 3c
       0.026128156 0.09351781 0.062419478 0.008793236
0001c0 d5 ce 1c bc 38 5b bf bc 9f ee 4d 3e c7 46 3c 3e
       -0.009570797 -0.023358926 0.20110558 0.18386374
0001d0 fb 3e 5d 3c 5d 62 49 be 69 bd 01 be 77 fb e2 bc
       0.013503785 -0.19666429 -0.1266991 -0.027707798
0001e0 11 f1 38 bc ac 89 2f be 92 d3 9a bd 72 f2 bc bd
       -0.011287943 -0.17142361 -0.07559885 -0.0922593
0001f0 59 66 38 bc 8a 14 e7 bd 86 71 58 be b7 11 bf bc
       -0.01125487 -0.112832144 -0.21137056 -0.023323877
000200 6a ac 09 be e9 4b 36 3d 42 8e eb bd d8 d7 89 3c
       -0.13444677 0.044505987 -0.11501743 0.016826555
000210 f9 fd 96 3c 3b 92 d6 bb d1 05 8c bd d2 60 47 be
       0.01843165 -0.0065481937 -0.06837047 -0.19470528
000220 8b a9 cb bd c1 db 97 bd 36 06 2d bd 82 54 b7 bd
       -0.09944447 -0.074149616 -0.04224225 -0.089516655
000230 97 c1 fc 3c 59 47 5e 3b fa 95 3b bd 3e 8a 5d bd
       0.03085403 0.0033917038 -0.045797326 -0.054086916
000240 8f 87 6e bd ae f7 05 3d c9 3b 39 bd b7 95 01 be
       -0.058234747 0.03270691 -0.04522303 -0.12654768
000250 99 9f 5c 3b c2 12 46 bd af 45 1d bd 8c 18 2e 3c
       0.0033664464 -0.048357733 -0.038396534 0.01062597
000260 83 2c db bd b5 43 99 bd 20 55 a4 bc 3b a3 af bd
       -0.10701849 -0.07483617 -0.020060122 -0.085760556
000270 00 bc 0a be 3c 6d a9 3d 9d 61 97 bd a5 88 65 bd
       -0.13548279 0.08272788 -0.07391665 -0.056038518
000280 79 a6 61 bc cb 2b 43 bc 80 ed cb bd 45 52 da bd
       -0.0137726 -0.0119122965 -0.09957409 -0.10660223
000290 ba fd a4 bd a7 cc 68 bc 62 dc 16 be 5f 31 a7 bd
       -0.08056207 -0.014208949 -0.14732507 -0.08163714
0002a0 92 ee 4b bd b6 04 4f be ec df 2b bd 4a 07 87 3c
       -0.049788065 -0.20216641 -0.041961595 0.016482968
0002b0 d0 50 f4 3a 42 e1 9b 3d 0e e8 13 3e c0 7f 5a 3d
       0.0018639807 0.07611324 0.1444399 0.05334449
0002c0 3d 66 77 3d 70 b1 a7 3d a2 27 a3 3d 16 5f 8e bc
       0.060400236 0.081881404 0.07966544 -0.017379325
0002d0 f6 64 bf 3d 71 c0 f3 bc b6 53 4a 3d f1 43 10 3d
       0.09345429 -0.02975485 0.04939624 0.035221044
0002e0 cd 53 75 bd 03 43 47 3d 3d 63 df 3c 5b 9a 0a be
       -0.05989437 0.04864789 0.027269 -0.13535444
0002f0 88 b7 17 bd 4b 89 1d 3e 4e 19 fc 3d a5 57 15 3e
       -0.037040263 0.15384404 0.12309514 0.14584215
000300 d5 8e f0 3c 82 84 e7 3d 6b 3a a1 3d 06 39 8a bc
       0.029364983 0.11304571 0.078724705 -0.016872894
000310 0b 00 ff 3d 4b cb a1 3d b7 46 23 3d 65 42 68 3d
       0.1245118 0.07900103 0.03986236 0.056703944
000320 56 3b 4d 3d 4c e4 02 3e 8a 7a 10 bd e2 ac bf 3d
       0.050105415 0.12782401 -0.035273112 0.09359147
000330 a6 d8 65 3d 21 43 55 3d e7 5d ce bc 97 49 31 be
       0.056114815 0.052065972 -0.02519126 -0.17313229
000340 1f db 79 bd cb 88 2a bd 2c ed 82 bd 47 db f2 bd
       -0.060999986 -0.041634362 -0.06392893 -0.1185823
000350 63 cb 91 3c f6 99 0f bd 1b c1 95 bd 41 c8 93 bd
       0.017797178 -0.035058938 -0.073122226 -0.0721593
000360 f6 9a 03 be 24 ab ee bd ec cf d0 bd 52 a5 9f bc
       -0.12852082 -0.11653736 -0.10195908 -0.01948801
000370 a2 26 0c ba b5 f3 64 bc aa 65 02 be cb 53 74 be
       -0.0005346333 -0.01397412 -0.12734094 -0.2386009
000380 f6 e7 96 bb 02 e2 aa bc 7b d1 ce 3d e0 cf 24 3c
       -0.0046052886 -0.020859722 0.10098549 0.010059327
000390 fb 1e d7 3d e9 6d 9c 3b 50 aa 12 bd 8f 8e 10 3e
       0.10503956 0.0047738445 -0.035806954 0.14116882
0003a0 ad 41 7c 3e ee b5 80 bd 56 f4 46 bd be 0f e3 3b
       0.24634428 -0.062847 -0.04857286 0.006929367
0003b0 b6 02 62 bc 69 f2 a4 bd b1 e6 c2 3d bd 79 c3 bd
       -0.013794592 -0.080540486 0.09516657 -0.09544704
0003c0 94 0b 07 be 45 fd 0f bd f0 2a 03 bd b4 28 10 be
       -0.1318801 -0.035153646 -0.03202337 -0.14078027
0003d0 0a c5 e2 bd ae 32 69 bd ff db 4e bc 3d 18 26 be
       -0.110727385 -0.056933098 -0.012625693 -0.16220184
0003e0 cc 3d 1b bd 9b 3f b7 bd cf 1c 1b be a9 e6 ea bc
       -0.03790073 -0.08947679 -0.15147708 -0.02867444
0003f0 8a 38 14 3e 73 3b 46 3d 2f c9 03 3d f9 50 93 3d
       0.14474693 0.04839654 0.032174286 0.07193179

extract_representation.0.bias f4 [16]
000000 8f 91 0d bd 4b 3e ce bd a2 10 9e bc cc ea 20 be
       -0.034562644 -0.10070475 -0.01929504 -0.15714568
000010 e4 6a 3f be a7 ae 8c bd 27 ff 81 3c 1b 6a 0d be
       -0.1869312 -0.0686925 0.015868736 -0.13810007
000020 48 42 87 bc f1 16 92 bd 2f e4 ec bc 31 f2 46 bd
       -0.016511098 -0.07133282 -0.0289174 -0.048570815
000030 60 b4 15 be f2 fc 00 bc f6 fd 30 bd 3f 02 fa 3c
       -0.14619589 -0.007872807 -0.043210946 0.03051865

extract_representation.2.weight f4 [8, 16, 3, 3]
000000 4f 78 c6 3d 36 9a b4 3d 94 80 bd 3d 37 09 c6 3d
       0.09690916 0.08818476 0.0925304 0.09669726
000010 51 e6 8b bd f2 7f 14 3e e6 62 2c 3d 5d 9f 3f 3e
       -0.06831039 0.14501932 0.042086504 0.18713136
000020 04 80 d4 3c 2d 61 18 3e a0 c3 7f 3d 6a 2c e4 3d
       0.025939949 0.1488082 0.062442422 0.11141284
000030 40 3d 34 3e f6 e7 32 3d fa d6 25 3d 28 28 c8 3d
       0.1760149 0.043678246 0.04048822 0.09773284
000040 49 0e fa 3d 08 1c 01 3c 2a 91 3d 3e db 99 9a 3c
       0.12209756 0.007880218 0.18512407 0.018872192
000050 cc 03 09 3e 73 c8 1a 3e 62 2c 42 3c 1a 16 94 3b
       0.13380355 0.15115528 0.011851402 0.0045192363
000060 8e 2a 0c 3e 46 60 03 3e c8 a2 bb 3d a9 16 0a 3e
       0.13688108 0.12829694 0.091619074 0.13485207
000070 7b 6a ba 3d 2b 05 27 3e 05 b5 ae 3d 62 96 04 bc
       0.09102341 0.16310565 0.085306205 -0.008092495
000080 3e 12 07 3d a9 62 3a 3e eb 7d 2e 3e 16 9a c4 3d
       0.03297638 0.18201698 0.17040221 0.09599702
000090 ec c6 01 3e 6a 1f b1 3d 2d 36 32 3e 7a 18 d7 3d
       0.12673539 0.0864857 0.17403479 0.105027154
0000a0 12 6d 10 3d 5d 6c e4 3c cf c7 42 3e da c8 3d 3d
       0.035260268 0.027883703 0.19021533 0.046334125
0000b0 67 29 c5 3d ab c9 20 bd a1 27 f7 bd 51 b0 7b bd
       0.096270375 -0.039254826 -0.120681055 -0.061447445
0000c0 2b 4c 42 bd 4b 4e be b9 df be a7 bc fa 65 59 3d
       -0.04743592 -0.00036297957 -0.020476757 0.053075768
0000d0 73 65 85 3c 2f 0b 66 3d 93 c9 40 3c 7e 92 5a 3c
       0.016283726 0.05616301 0.011766809 0.0133405905
0000e0 f1 c0 61 bd 2a e5 ee 3c b8 1d 6c 3d e1 ab 9b 3d
       -0.055115644 0.029162008 0.05764553 0.07601143
0000f0 fb ce 5d bd 2a 3c 7f 3d 76 be 2d 3e e5 26 29 3e
       -0.05415247 0.062313236 0.16967186 0.16518743
000100 f2 85 4f 3d 39 9f 3c 3d 35 e1 e6 bb 5b e1 10 bc
       0.05066485 0.046050284 -0.0070458897 -0.008842791
000110 1c 82 35 bd a1 61 ac 3c d9 02 12 3d c1 50 1f 3d
       -0.044313535 0.021042647 0.035647247 0.038895372
000120 ac 2c 2a bd 7d f9 38 bc f8 03 42 3c d1 3a 4a 3d
       -0.04154651 -0.011289951 0.011841767 0.049372498
000130 ac 64 4e 3c 64 3f d4 bd 8c cd 92 bc 5a e9 7b b9
       0.012597244 -0.10363653 -0.017920278 -0.00024024156
000140 8a 8c 1f bb 70 5f 6f 3d d3 68 8e 3d 4a fb 33 3d
       -0.0024345242 0.058440626 0.069535874 0.04394082
000150 e8 5c 4d 3e 5f 8f 8e bb 96 0d b0 3c 29 4b ef 3d
       0.20054972 -0.0043505873 0.021490853 0.116842575
000160 04 c3 9a 3d ec f9 98 3d 85 34 47 3e 38 da 07 3d
       0.075567275 0.07469544 0.19453628 0.033167094
000170 0a e3 29 3e 7e aa b7 3d 51 d4 26 bd 70 bf 0f bc
       0.16590515 0.08968066 -0.040729824 -0.00877367
000180 93 db 69 3e df eb 33 3e 83 75 9e 3d 0b 0c ae 3c
       0.22837667 0.17570446 0.07737257 0.021245977
000190 bf 48 96 bb ff dd d2 bc 14 71 95 3d 8c 79 ff bc
       -0.0045863087 -0.025740622 0.072969586 -0.031185888
0001a0 e7 d4 90 bd ba fc 4e 3d 83 b7 30 bd 34 16 9b bc
       -0.07071858 0.050533988 -0.04314376 -0.018931486
0001b0 10 1c 00 3e 65 c4 16 3e 70 dc c3 3d be dd e9 3d
       0.12510705 0.14723356 0.095635295 0.11419247
0001c0 89 20 3b 3d a1 a9 4f 3c 44 ce 48 3e c9 4b 3a 3e
       0.045685325 0.01267472 0.19609934 0.18192972
0001d0 cd 93 07 3e 10 2f 81 3c 6e a0 ab 3b 8d a3 29 3c
       0.13239975 0.015769511 0.0052376306 0.010353935
0001e0 cc cd 86 3c 3c 8a fa 3c a8 bb 0c bd c7 f1 04 3e
       0.016455553 0.030583493 -0.03435865 0.12982856
0001f0 03 09 e9 3c 6d 34 fb 3c 21 3a 61 3e d1 f3 04 3e
       0.02844668 0.030664647 0.2199483 0.12983634
000200 e6 68 f4 3d 86 67 37 3e a4 f0 b1 3d 8d 42 a8 3c
       0.1193407 0.17910585 0.08688477 0.020539546
000210 64 d6 dc 3d ca 49 44 3e b2 94 1b 3e d2 43 40 3d
       0.10783079 0.19168773 0.15193442 0.04693968
000220 bb 6e 27 3e 0b df 98 3d cc 60 64 3d 77 f2 b4 3c
       0.16350834 0.07464417 0.055756375 0.022088272
000230 75 a6 5a bd 7f 40 a7 3d 48 9b 11 3e 96 61 74 bd
       -0.053381402 0.081665985 0.14219391 -0.059663378
000240 59 34 1e 3e 2d ad 9c 3d c9 b1 02 3e b3 a6 e4 3d
       0.15449657 0.07650218 0.12763132 0.11164608
000250 56 a5 2e 3d d9 0f ac 3d 7b 85 d8 3d d4 b3 d1 3d
       0.042638145 0.0840146 0.105723344 0.102393776
000260 c1 b3 d0 3d 51 1f 8c 3c 58 21 c8 3d d4 2d 11 3e
       0.10190535 0.017104777 0.09771985 0.14177638
000270 53 7b 48 3d 67 37 f0 3c 10 31 28 3e d6 a9 03 3e
       0.048945736 0.029323293 0.16424966 0.12857756
000280 53 0a 04 3e bd 6f c8 3d 16 5a 2c 3e 12 25 eb 3d
       0.12894563 0.097869374 0.1683124 0.1148168
000290 3b ff c4 3d 2d 70 78 3e 8f 39 24 3e ac 8d be 3d
       0.09618994 0.24261542 0.16037582 0.093043655
0002a0 fb 1c 02 3e bb 1f 06 3e 04 fd 03 3e 02 ab 37 3e
       0.12706368 0.13098042 0.12889487 0.17936328
0002b0 93 1c ac 3d 5f 97 11 3e 3a 80 95 3d 06 ab 1e 3e
       0.084038876 0.142179 0.07299848 0.15494928
0002c0 c8 33 61 3d a9 72 5a 3e 29 bb 31 3e dc 23 17 3e
       0.054981023 0.21332802 0.17356552 0.14759773
0002d0 8f 27 6a 3e d0 a4 aa 3d c6 fb 26 3e d3 4c 6d 3e
       0.22866653 0.08332217 0.16306981 0.23173837
0002e0 c8 94 98 3d 98 f3 34 3e 09 89 d4 3d 39 b6 0e 3e
       0.07450253 0.17671049 0.103777 0.139367
0002f0 af 3d 1f 3e 35 03 22 bd 7f a2 cb 3d 2c db 79 bc
       0.15550874 -0.03955384 0.09943103 -0.015250009
000300 91 b2 3e bd cc 7c 84 3d 26 28 7a 3d 73 12 98 bc
       -0.046557013 0.064691156 0.061073445 -0.018563485
000310 a6 75 e7 3d 67 fa 8e 3d 1b ec 94 3d 9c dd 98 3d
       0.113017365 0.06981354 0.07271596 0.07464144
000320 d3 22 d1 3c f5 cf 01 3e 8f a9 96 3c ed 16 0c bd
       0.0255293 0.12676986 0.018391399 -0.03420155
000330 02 78 df 3c b8 5e 2a 3d 71 ee 67 3d 17 47 c3 3d
       0.027278904 0.041594237 0.05662388 0.09535044
000340 ce 0b 00 bc aa 65 a0 3d 93 8f 40 3d f4 14 81 3d
       -0.007815314 0.07831891 0.047011923 0.063028246
000350 16 65 9f bb a2 a7 1d 3e 64 16 71 3c 2c b9 70 3c
       -0.0048643453 0.15395978 0.014714811 0.014692586
000360 28 1c 87 3d 63 f4 cc 3d 4a 66 2a 38 97 1c 92 3d
       0.06597167 0.100075506 4.0626423e-05 0.07134359
000370 49 63 ac 3d 5d b9 ba 3d 6c 94 18 3e 68 62 03 3d
       0.08417375 0.091173865 0.14900368 0.03207627
000380 f7 91 4c 3d 09 cd 36 3e 94 cc 19 3e d5 83 8b 3d
       0.04994389 0.17851652 0.15019447 0.06812254
000390 13 53 91 3d 5f ff 62 3d 1b cf 08 3e dc a0 46 3e
       0.07095923 0.055419322 0.13360254 0.193973
0003a0 d6 11 d1 3d 97 dd 86 3d c8 1d 20 3e 85 f3 6a 3e
       0.1020848 0.06585234 0.1563636 0.22944458
0003b0 6b 37 c7 3d ab 09 18 3e 96 2b 7d 3d 13 7c 48 3e
       0.09727367 0.14847438 0.061809145 0.1957858
0003c0 35 fd 6e 3e dd 7f 3f 3e e6 9b fe 3d 3f 41 1c 3d
       0.23338778 0.1870112 0.12432079 0.03814816
0003d0 92 52 8b 3d 21 ad 94 3d ba cc 0d 3e d4 6c 08 3c
       0.068028584 0.07259584 0.13847628 0.008326728
0003e0 bd fc 3f 3d 57 0b 25 3e 70 06 a2 3d 23 fb ae 3c
       0.04687189 0.16117607 0.07911384 0.021359986
0003f0 cc 0a 11 3e 97 81 49 3d cd 13 45 3e b7 0c bd 3d
       0.14164275 0.049195852 0.19245835 0.09230941

extract_representation.2.bias f4 [8]
000000 62 c9 be 3c b4 e0 53 bd 54 aa 3d be 92 fe a3 bd
       0.023289386 -0.051727965 -0.18522006 -0.0800754
000010 4b 8c d5 bd 1b 7a 88 bc a4 39 0e be 6a a1 f0 bd
       -0.104271494 -0.016659787 -0.13889176 -0.11749537

extract_crop_representation.0.weight f4 [16, 32, 3, 3]
000000 a5 a6 4e 3d 96 92 39 3d 66 7c 0c 3d 93 c4 4c 3d
       0.050451893 0.04530581 0.034298323 0.049992155
000010 9c 6b ab 3c e0 26 6f 3d 54 3f 9c 3d d2 19 d2 3d
       0.020925336 0.058386683 0.076292664 0.10258831
000020 41 74 e4 3d c9 6c 6c bd d2 ed d8 bd 2f 8a bd bd
       0.11154986 -0.057720933 -0.105922356 -0.09254872
000030 f1 01 f0 bd 19 67 cc bd 8c 82 81 bd 0c 62 26 bc
       -0.1171912 -0.09980602 -0.06323728 -0.010155212
000040 6d a9 bf bd 7e e3 38 bd 3a a6 b0 bd 47 96 12 be
       -0.09358487 -0.04513883 -0.08625455 -0.14315139
000050 c3 b9 73 bd 8c c8 30 bd a1 de 9b bd 43 9d fa bd
       -0.059503328 -0.043160006 -0.076108225 -0.122370265
000060 dd 9d 2a bc 39 17 04 bd b1 38 52 bd 85 1d e6 3d
       -0.010413614 -0.03224871 -0.051323596 0.11236099
000070 87 65 b3 3d b9 60 d7 3d f5 55 8c 3d c4 7e d2 3c
       0.08759599 0.10516495 0.068523325 0.025695212
000080 70 17 50 3d 63 f7 4b 3c 99 19 06 3d 87 ab ef 3c
       0.0508036 0.012449118 0.032739256 0.029256595
000090 ad 47 98 bd e7 c4 f2 bd 2b b2 29 bd 4c e3 c5 bd
       -0.07435546 -0.118539624 -0.04142968 -0.09662494
0000a0 92 79 ac bd a8 65 b2 bd 0c 59 a3 bb c7 61 a4 bd
       -0.08421625 -0.08710796 -0.0049849804 -0.08026462
0000b0 ba 5f e9 bd 2d 8e 8f bd 08 70 67 bd cb 09 df bd
       -0.113952115 -0.0700954 -0.056503326 -0.1089054
0000c0 2e 1d 55 bd 67 3c a3 bc dd 97 47 bd 5f ee b6 bc
       -0.05202978 -0.019926263 -0.048728812 -0.022330461
0000d0 52 a7 22 bd 04 d5 f4 bc cf 53 83 bd 38 91 53 bd
       -0.03971035 -0.02988673 -0.064124696 -0.051652163
0000e0 08 78 c2 bd 5f 70 c7 bd 35 f7 2c bd f8 fe 47 bc
       -0.094955504 -0.0973823 -0.042227942 -0.012206785
0000f0 f5 c9 b7 bd 10 cb 12 bd 51 7e 9c bd f6 82 07 3c
       -0.08974067 -0.035838187 -0.076412804 0.00827097
000100 c5 e4 85 3d a2 d4 b0 bb cf 8b 74 3d c4 ba c9 3c
       0.06537775 -0.0053964416 0.059703644 0.02462519
000110 ba ba 7d 3d c3 16 39 3d 6c db 2b 3d 6b fe c2 3d
       0.061945654 0.045187723 0.041957304 0.095211826
000120 77 55 e5 3d 39 50 93 3d c4 e2 16 3e fb 41 cd 3d
       0.11197942 0.07193036 0.14734942 0.100223504
000130 cc ba b7 3d bb dc c7 3d f2 63 3b 3d 59 52 2f 3b
       0.089711756 0.09758898 0.045749612 0.0026751964
000140 34 bf 5a 3d 4d a9 b7 bd 9b d2 88 bd b4 0b e4 bd
       0.053405 -0.089678384 -0.06680795 -0.11135045
000150 27 1b b1 bd f6 55 eb bd 8e b3 e4 bd 66 04 73 bd
       -0.08647757 -0.11491005 -0.1116706 -0.059330367
000160 2a b9 a5 bd 31 89 8b bc 86 e1 05 bd dc 69 c4 bd
       -0.08091958 -0.017033191 -0.03268578 -0.095905036
000170 8e 0a 85 bd 65 d1 d7 bd a3 56 5c bd 81 d5 6f bd
       -0.06496154 -0.10537986 -0.05379356 -0.058553223
000180 72 03 a4 bd 04 db 51 bd 68 04 fe bc 02 50 aa bc
       -0.0800847 -0.05123426 -0.03100796 -0.020790104
000190 38 f6 fe bd 28 b5 ec bd 62 0f 13 be 8f 5a f3 bd
       -0.12449306 -0.1155799 -0.14361337 -0.11882507
0001a0 76 cc 6c bd 7e d0 be bd 52 43 73 bd 6a 7f 91 bd
       -0.057812177 -0.093171105 -0.059390374 -0.071043804
0001b0 80 ec 89 3c 25 99 6f 3d 41 11 b4 3d 12 31 0e 3e
       0.016836405 0.05849566 0.087923534 0.13885906
0001c0 72 29 f4 3c 2d 22 8e 3d 38 87 91 3b cb 25 a1 ba
       0.029804919 0.06940112 0.004441168 -0.0012294588
0001d0 e7 f0 5a 3d ae 9b 16 be 7b bc 25 bd 58 2a fa bd
       0.0534524 -0.14707825 -0.040462952 -0.12215108
0001e0 b5 ab 7d bd ea 7e a4 bc 3c 0c a2 bd 7d 05 b4 bd
       -0.06193133 -0.020080049 -0.0791249 -0.08790109
0001f0 3e 16 5c bc 65 49 b7 bd c7 36 7b bd b5 89 c9 bd
       -0.013433037 -0.08949546 -0.061331537 -0.09840719
000200 3d ea a5 bd d7 50 05 be a6 95 d5 bd 6e 9a 6f bc
       -0.08101318 -0.13019119 -0.10428934 -0.014624221
000210 35 ec fa bc 6e 2f 96 bc 81 d3 44 bd 25 c5 e4 bc
       -0.03063021 -0.018333163 -0.04805327 -0.027926037
000220 cc 67 cf bd fe 7b 94 bd 41 2f 5e bd ce 2e d6 bc
       -0.101272196 -0.07250212 -0.054244284 -0.026145365
000230 7e cd a7 bd 30 8e cb bd ce 71 c7 bc 01 df ca bd
       -0.081934914 -0.099392295 -0.024346258 -0.09905816
000240 02 ef ca bd 02 1d c5 bd ae 1b 0c be 23 be 3e bd
       -0.09908868 -0.096246734 -0.13682434 -0.046568047
000250 b3 8a 37 be e2 2c 46 be f9 d8 11 be 7b a0 55 bd
       -0.17924003 -0.19353059 -0.14242925 -0.052155
000260 13 50 2e bd d7 a8 84 3d c4 43 01 bd 59 23 03 3d
       -0.042556833 0.06477516 -0.031558767 0.032016132
000270 d1 bf 38 3d 37 d0 f6 bc 5d 30 51 bc 89 93 6b bc
       0.045104805 -0.030128581 -0.012767878 -0.014378437
000280 6b db 87 bd 6c 74 3d bb a8 b5 82 bd 52 c7 c3 bd
       -0.066336475 -0.0028908504 -0.063823044 -0.09559502
000290 25 bc 29 bd 5e 93 03 be fb 90 d8 bd 2a 35 e9 bd
       -0.041439194 -0.12849185 -0.10574528 -0.11387093
0002a0 00 1d 97 bd 08 e4 82 bd 0c 35 1d bd 3d fa b7 3c
       -0.07378578 -0.0639115 -0.038380668 0.02245819
0002b0 39 f8 db 3d 97 97 52 3d 73 43 d4 3d 9f 30 1a 3d
       0.10740704 0.0514141 0.103644274 0.037644025
0002c0 58 51 41 3d 61 60 4c 3d 81 76 64 3d 21 ab 86 3c
       0.047196716 0.0498966 0.055777077 0.016439022
0002d0 6f 85 12 bd c8 4d d6 bd 26 bf e7 bd 11 c9 5f bc
       -0.035771783 -0.10464054 -0.113157555 -0.013658778
0002e0 32 2b a3 bc 05 8c d6 bb dd 36 3c bd 37 4d 4e 3d
       -0.019918058 -0.0065474533 -0.04595076 0.050366607
0002f0 28 bc c2 3c aa 37 0a 3e cc ca e6 3d 34 58 ae 3d
       0.02377136 0.13497797 0.11269149 0.08512917
000300 bc b7 b4 3d a7 79 db 3d fe 68 ba 3d e3 c3 69 3d
       0.08824107 0.10716563 0.09102057 0.057071578
000310 ce 78 c7 3d d7 50 c0 3d 90 81 52 3d 9e 60 42 3d
       0.097398385 0.09390419 0.05139309 0.047455423
000320 18 4a c4 3c 46 43 2b 3d d8 30 5c 3d eb 1b 65 3d
       0.023961112 0.041812204 0.05375752 0.055934828
000330 e1 9d 9a 3d e5 3f ab 3d 30 42 95 3d b0 57 10 be
       0.07549644 0.08361796 0.07288015 -0.1409595
000340 0f 91 05 be 13 de b8 bd 05 22 76 bd c6 3f ed bd
       -0.13043617 -0.09026732 -0.060091037 -0.115844294
000350 a8 fc ed bd c1 71 58 bd cf ed 6e bd 89 1b d9 bc
       -0.11620456 -0.05284286 -0.05833226 -0.026502388
000360 a9 9e ed bd e2 82 33 bd f3 2e 63 bd 97 5d 08 be
       -0.11602528 -0.04382599 -0.055464696 -0.13316952
000370 c7 95 02 be 08 68 7f bd 43 01 d2 bd 4d e3 55 bd
       -0.12752448 -0.06235507 -0.10254147 -0.052218724
000380 04 53 d6 bc b6 15 fa 3d 7a a5 ce 3d 06 37 04 3c
       -0.026162632 0.12211172 0.10090156 0.008069759
000390 4d 13 49 3d ef 4e e8 3c 90 7c 79 bc b6 e0 a1 3c
       0.049090672 0.028357951 -0.015227452 0.01976047
0003a0 9f 52 d0 3d 07 86 06 bc 59 9b b5 3d ad 9a f5 3c
       0.10172009 -0.008210666 0.08867521 0.029980982
0003b0 41 96 6b bb 65 7f 8c 3d 22 89 28 3c 1b fc 6b 3c
       -0.0035947713 0.06860236 0.010286601 0.014403368
0003c0 17 5a c8 3b be af dc 3c bd 6c c9 bc 97 3f 02 be
       0.006114255 0.02693927 -0.024587983 -0.1271957
0003d0 16 7f 10 be 21 77 17 bd e1 f9 a6 bd 1f b5 ba bd
       -0.1411098 -0.036978845 -0.08153129 -0.09116577
0003e0 05 a3 a0 bd ee 8f 17 bd 6e bf d0 bd ee 03 3e bc
       -0.078435935 -0.037002496 -0.10192762 -0.011597617
0003f0 a4 5c b6 3d c7 7e 1f 3e 80 7d 88 3d 9d 55 15 3e
       0.089043885 0.15575705 0.06664562 0.1458344

extract_crop_representation.0.bias f4 [16]
000000 51 ca fe bd eb 3b 14 be 71 31 f5 bd e4 5d ce bd
       -0.124409325 -0.14475982 -0.11972321 -0.10076502
000010 47 e8 ed bd 09 84 13 be c4 d4 83 bd 21 e1 e3 bd
       -0.11616569 -0.14405836 -0.06437066 -0.11126924
000020 20 9c 2a be e3 70 ef bc 44 56 d1 3c 64 fc e2 bc
       -0.1666112 -0.029228633 0.02555383 -0.02770824
000030 ff 3f 33 3d e0 81 d5 3d 31 bf 2c be 05 74 e9 bc
       0.043762203 0.10425162 -0.16869809 -0.028497705

extract_crop_representation.2.weight f4 [8, 16, 3, 3]
000000 ef 80 05 3e 99 0b 2a 3e b3 6a eb 3d 73 72 57 3d
       0.13037466 0.16605987 0.11494961 0.05259938
000010 8a 28 87 3b 1a 51 eb 3d 31 78 58 bc ac 40 0d 3e
       0.0041247057 0.11490078 -0.01321225 0.13794202
000020 0c ca 50 3e 38 f3 41 3e a4 4a 64 3e df 0c 73 3c
       0.20389575 0.18940437 0.22294098 0.014834612
000030 03 b6 44 bb 99 d5 3b 3e 3d a1 3c 3e 08 53 3b 3c
       -0.0030015714 0.183432 0.18420883 0.01143337
000040 06 e0 9f 3d 36 dc 53 3e 23 e3 07 3e 89 7b d8 3d
       0.07806401 0.20689473 0.1327024 0.105704375
000050 68 4a 37 3d 24 99 04 3d 86 65 29 3d 2d ed d1 3d
       0.044748694 0.03237261 0.041356586 0.10250316
000060 70 a3 94 3c 59 fe 91 3c a3 8e bd 3d a2 f7 44 3e
       0.01814434 0.017821478 0.092557214 0.1923509
000070 dc 51 6c 3e 76 22 1e 3e 68 51 f2 3d 57 26 43 3d
       0.23078102 0.15442833 0.11831933 0.047643986
000080 76 53 6e 3e bc 20 85 bd 7b 8d 05 3e 1b f4 85 3e
       0.23274025 -0.06500384 0.13042252 0.261628
000090 82 bd 5a 3e 40 80 36 3e 7d d4 1d 3e ba 11 2a 3d
       0.21361354 0.17822361 0.15413089 0.04152081
0000a0 3f cd 13 3e 45 ea 56 3e c5 cf 50 bd f1 3c f1 3d
       0.14433764 0.20987804 -0.050979394 0.11779202
0000b0 73 da 6b 3e e7 42 0d 3e 66 cf 6c 3e fe 75 12 bd
       0.2303255 0.13795052 0.23125991 -0.035757057
0000c0 17 d5 a6 3c bb 8e 88 3d 44 06 8a 3d 5e 63 82 bc
       0.020365281 0.06667849 0.06739476 -0.015916523
0000d0 b8 ba 97 bc bf f0 bd 3d 3e 3b 82 3e 03 1f 74 3e
       -0.018521652 0.09274434 0.25435823 0.23839955
0000e0 a1 98 9f 3d 1a 32 23 3e 75 fd a6 3d 48 b9 f9 3d
       0.077927835 0.15937081 0.08153812 0.12193543
0000f0 01 5a 7f bd 03 2a 63 3d 27 32 4f 3e 0a 48 81 3e
       -0.062341694 0.055459987 0.20233975 0.25250274
000100 da 80 39 3e ce 7e 52 3e e1 81 de 3d 98 70 d0 3d
       0.18115559 0.20556185 0.10864616 0.101777256
000110 ff e2 0d 3e 44 74 ef bb 31 9b e6 3d 1f 18 69 3e
       0.13856123 -0.007307561 0.11260069 0.22763108
000120 ab d4 64 3e ce 0a 0e 3e 9f 20 c9 3d 29 64 b8 3d
       0.22346751 0.13871309 0.09820675 0.09003479
000130 93 ec 3d 3e a6 8a 22 3e ce 53 06 bd 45 23 0e 3e
       0.18547277 0.15873203 -0.032794766 0.13880642
000140 4c 6f a6 3d 08 e2 3c 3e 6f 0c 98 3d 87 6b f4 3b
       0.08126697 0.18445599 0.074242465 0.0074591073
000150 c4 78 c8 bb 40 77 12 3c b6 ec 22 3e d3 cf 1c bd
       -0.006117912 0.008939564 0.1591061 -0.038284134
000160 e4 5d c8 3d ed 5b 55 3e e9 11 ea bc fd 48 d3 3c
       0.09783533 0.20835848 -0.028572993 0.02579164
000170 83 36 fb ba 93 5a 36 3d 42 8d f5 3b f5 40 4b 3d
       -0.0019166026 0.044519972 0.007493646 0.049622495
000180 23 ef 03 3e 24 42 8c 3d 7a e1 b6 bc fd 18 9c 3d
       0.12884192 0.06848553 -0.022324312 0.07621954
000190 6e 3e ee 3c 38 b5 cb 3d 7c 9d 8b 3c 23 1d f7 3c
       0.029082503 0.09946674 0.017042868 0.03016526
0001a0 34 bb 48 bd a7 f3 bf bd 8a 33 98 ba c3 41 7d bd
       -0.049006656 -0.09372645 -0.001161204 -0.061830293
0001b0 c3 c3 18 3d 65 bf 15 3e 30 1c b5 3d 82 44 83 bd
       0.037296068 0.14623792 0.08843267 -0.06409551
0001c0 4a 3e fe bc 59 1e ab 3d 50 58 77 3e 4b 54 81 bc
       -0.031035561 0.08355398 0.24154782 -0.015787264
0001d0 51 fb 1d bd 87 7e 3f be 33 62 35 bd ce 0b 05 bd
       -0.038569752 -0.1870061 -0.044283103 -0.03248196
0001e0 91 57 89 bb f0 4c ef bc a5 a3 07 be 59 a5 7b 3e
       -0.004191347 -0.029211491 -0.13246019 0.24574794
0001f0 ad 74 85 bc a1 57 49 bd 23 8a 39 3e d5 eb 35 3e
       -0.016290987 -0.049155835 0.18119101 0.17765744
000200 fb 7a 28 3e 4c e4 07 3d c4 87 ec 3d 9b 4e 18 3e
       0.16453163 0.033176705 0.11549333 0.14873736
000210 6a 78 03 3d 5d 52 28 3e d2 ae 5b 3e 70 14 a4 3d
       0.032097258 0.16437669 0.21453407 0.08011711
000220 62 65 a3 3d 8c 19 f5 3d b2 2e 0b 3d f7 65 57 3c
       0.079783216 0.11967763 0.03398008 0.013146869
000230 02 18 b0 39 58 72 75 bd 3e 14 e5 3d f0 29 d5 3d
       0.00033587223 -0.0599235 0.111855015 0.104083896
000240 69 ce 1f 3e 3f 2d 0c 3e 29 48 4f 3e c2 76 1a 3e
       0.15606083 0.13689135 0.2024237 0.15084365
000250 c5 1c 20 3e 25 78 84 bb 0b 27 0e 3d 19 7a 88 bd
       0.15635975 -0.0040426427 0.034705203 -0.06663913
000260 ec 60 28 bd 1b 8d d4 3d 04 71 61 3c f7 6e 36 3e
       -0.041108057 0.10378476 0.013759855 0.17815767
000270 c0 44 56 3d 04 c2 36 3d 0e 5e b3 bc 37 41 09 3e
       0.05231166 0.04461862 -0.021895435 0.13403784
000280 ea 78 03 bd d8 f9 71 3a 27 bd 91 3d b1 75 5b 3d
       -0.032097735 0.000923065 0.07116156 0.053579036
000290 63 ef fa 3d d8 66 9f 3d 15 cd 4a 3d b3 16 b6 3c
       0.12252691 0.07783288 0.049511988 0.02222762
0002a0 1b a3 c5 3c 76 de a6 bc c5 0f 69 bd 90 a9 0b 3e
       0.024125626 -0.02036975 -0.056899805 0.13638902
0002b0 84 cf d2 3d 7b 3d 8a 3d f7 a9 2f 3d a4 4b 9f bc
       0.10293487 0.06750008 0.0428867 -0.019445248
0002c0 c4 30 fa 3d c6 22 a9 3c df 95 64 bd 4f e0 e1 bd
       0.122163326 0.020646464 -0.05580699 -0.110291116
0002d0 49 2c 03 3e 04 3c c3 3c 46 e7 30 3e 47 76 bb 3d
       0.12809862 0.023832329 0.17275724 0.09153419
0002e0 a4 65 9b 3d ea 68 c0 3c 34 92 51 3d 54 25 3a bb
       0.07587746 0.023487527 0.05116482 -0.0028403597
0002f0 dc 45 83 bd 99 7b 83 3d ab c0 80 3c 6e 31 5c 3d
       -0.06409809 0.06420059 0.015716871 0.053758077
000300 e7 18 d3 3c d4 ad ea 3d b2 a2 2f bc 8e bf 9f 3d
       0.02576871 0.11458936 -0.010719942 0.07800208
000310 47 1c 18 bd be 0f f3 bc de 57 62 3d c4 9b f8 3d
       -0.037136342 -0.029670592 0.055259578 0.12139085
000320 35 ae d4 3d 1d 17 db 3d c1 09 03 3b 10 3f 14 3d
       0.1038479 0.10697768 0.0019994827 0.036192954
000330 e5 d9 e5 3d 8e 9a 2f 3b 33 5e 4e 3c b4 78 57 bc
       0.11223201 0.0026795003 0.012595701 -0.013151336
000340 13 61 2a 3d 64 7c c0 3d 0b 29 a6 3d 1e 17 7b 3d
       0.041596483 0.09398726 0.08113297 0.061301343
000350 dc 1b 86 3c c0 73 e3 3d 58 02 76 3d c2 89 bb bd
       0.016370706 0.11106062 0.06006083 -0.091571346
000360 83 9c e5 3d 60 f3 9c 3d 61 a1 51 3d b4 39 15 3c
       0.11211493 0.076636076 0.051179294 0.009107996
000370 c6 88 d3 3c 80 a6 a2 3d f2 2f 3b 3d 71 9a 63 bc
       0.025822055 0.079419136 0.04570002 -0.013891802
000380 34 2a 48 bb ee b7 d8 3d ef 23 e7 bc 42 a3 7a 3d
       -0.0030542733 0.10581957 -0.028215377 0.06119085
000390 0c e7 ba 3c 0e c8 55 3a b6 fd ad bd 55 20 7c bc
       0.02281525 0.00081551156 -0.08495657 -0.015388568
0003a0 f2 b8 5b bc c4 b0 f8 bc 87 c0 f2 bd c0 57 97 bd
       -0.013410794 -0.030357726 -0.11853128 -0.07389784
0003b0 4e e9 3f be d2 33 27 bd 82 a8 8f bd 86 32 0d be
       -0.18741342 -0.040820904 -0.07014562 -0.13788804
0003c0 40 48 56 3d 69 48 86 bb 33 84 18 be a6 e0 3f bd
       0.052314997 -0.0040979874 -0.1489418 -0.0468451
0003d0 30 2f e2 bd 77 07 8e bd 20 d3 26 be 3a 88 18 be
       -0.110441566 -0.069350176 -0.16291475 -0.14895716
0003e0 e4 36 7a be d7 6b d7 ba 69 25 31 be 29 ac 36 be
       -0.24435002 -0.0016435337 -0.17299427 -0.17839111
0003f0 ec 6a d9 bd 70 10 52 3b 3b 1c 12 3c e0 f4 15 be
       -0.10616097 0.0032053255 0.0089178635 -0.14644194

extract_crop_representation.2.bias f4 [8]
000000 c6 03 85 bd 4c 8b c9 3b 7a 38 74 be ae 13 cc bd
       -0.0649486 0.0061506387 -0.23849669 -0.09964691
000010 9a 13 9a bd 50 07 a4 bd 24 db 44 be 38 8c 7b be
       -0.0752327 -0.08009207 -0.1922422 -0.24565208

embed_blstats.0.weight f4 [32, 12]
000000 2c 37 25 3e 8e 95 c1 be 9b 8a a7 be 56 da ab be
       0.16134328 -0.37809414 -0.32722935 -0.33565015
000010 c5 30 74 be a0 52 9f 3e 66 53 c9 bc 5d 59 83 be
       -0.23846729 0.31117725 -0.0245759 -0.25654116
000020 64 ae fd bd b6 14 6f 3c f9 a1 d6 3c b9 12 1a 3e
       -0.12386778 0.01459234 0.026200281 0.15046205
000030 a8 ae 11 3e 95 5b 96 bd e0 0b 83 be 57 72 ec bc
       0.14226782 -0.07341687 -0.25594997 -0.028863115
000040 69 46 8a 3e 29 6c f5 3d 37 78 8a 3e f8 52 19 be
       0.27006844 0.119835205 0.27044842 -0.14973056
000050 34 21 07 be 4a 91 59 be 85 90 c6 3b b0 af 8d be
       -0.1319626 -0.2124683 0.0060597085 -0.276731
000060 01 ec b3 3d 41 b1 1b be 8e 11 76 be 13 83 5c be
       0.087852485 -0.15204336 -0.24030134 -0.21534376
000070 98 b6 97 3e e2 38 9b 3d ae 80 27 be c1 5d f1 3d
       0.29631495 0.07579209 -0.16357681 0.1178546
000080 7b 08 d8 3d 03 5e a3 be 0b 60 3b be 3e 50 c4 3d
       0.105484925 -0.31907663 -0.18298356 0.095856175
000090 96 6e 7f bc ce 0e be be c3 16 09 be 74 31 bd 3d
       -0.015590331 -0.3712067 -0.13387589 0.09237948
0000a0 21 09 a7 bd c2 00 ce 3b 7e 58 9d 3e 04 fc d0 bc
       -0.08156038 0.0062867114 0.30731577 -0.025510795
0000b0 11 89 37 bd 38 a6 2d be bd b4 5c bd b4 7d f4 3d
       -0.04480845 -0.16957939 -0.053883303 0.119380385
0000c0 24 6b 2b be e9 7b e9 3d a0 e6 3f be a0 e2 29 bc
       -0.1674009 0.11400587 -0.1874032 -0.010368973
0000d0 97 47 08 3e 6f 56 72 3e 23 40 2a be 90 ac 18 be
       0.1330856 0.23665784 -0.16626029 -0.14909577
0000e0 00 11 cb bd 6e f7 17 3e 84 73 35 3e 8e 90 a1 be
       -0.09915352 0.1484048 0.17719847 -0.315556
0000f0 9b cb 3e be 18 c0 49 be 9c 3a 51 bd 22 6e 2a 3e
       -0.18632357 -0.19702184 -0.051081285 0.16643575
000100 23 6d 0c 3e 45 86 69 be 59 72 23 be cb 57 63 3c
       0.13713507 -0.22805126 -0.15961589 0.013875912
000110 24 26 2a 3e ff 75 a4 be 90 ec 61 be aa 57 86 be
       0.16616112 -0.32121274 -0.22062898 -0.26238757
000120 f1 3f 1d 3d 08 e4 16 3e fe fe 18 3e 18 4d 3e be
       0.038391057 0.14735425 0.14941022 -0.18584096
000130 c4 cc e6 bd 26 bd 9b bd 49 b5 e0 bb 51 2c 2a be
       -0.11269525 -0.076044366 -0.0068575484 -0.16618468
000140 ec 14 aa 3b b3 3f 45 be af d4 bf bc 75 55 d9 bd
       0.0051904824 -0.1926258 -0.023416845 -0.10612003
000150 c3 c4 03 3e c4 ad b8 be d5 9d 00 be 8d 17 e1 bd
       0.12868027 -0.36070073 -0.12560208 -0.1099082
000160 85 b9 5a 3e 10 d5 97 3e 14 19 73 3e 5d ae a1 3c
       0.21359833 0.2965474 0.23740035 0.019736463
000170 42 3c 36 bd 7c 1a 4d be 91 72 83 3d be d8 20 be
       -0.04449106 -0.20029634 0.06418336 -0.1570768
000180 cd b0 5c be f5 9a 73 be d3 b2 fd bc cb 17 ae 3c
       -0.21551819 -0.2378958 -0.03096906 0.02125158
000190 d2 0e 38 3e 31 e4 18 bb cd 87 8f be df e3 8f be
       0.17974404 -0.0023329372 -0.28033295 -0.2810354
0001a0 ee fc 2e 3d b6 e1 ca 3d ce 72 92 be 28 27 7d be
       0.04272168 0.09906332 -0.28603214 -0.24721968
0001b0 4f a8 9e be 75 df d0 3d 2d 47 a2 3d 2a 65 cc be
       -0.30987784 0.10198871 0.07923732 -0.39920932
0001c0 5e ce 33 bd 1b e5 07 be b3 3b e1 3c 1a c3 bf 3d
       -0.04389798 -0.1327099 0.027494287 0.093633845
0001d0 e5 d5 0e 3d 74 1e bb 3d 70 36 11 be 4d 26 b6 bd
       0.034871954 0.09136668 -0.14180923 -0.08894024
0001e0 2c 15 5c bd 23 76 7c be b3 54 d9 be 8a de a1 be
       -0.05373113 -0.2465444 -0.42447433 -0.31615096
0001f0 75 19 3a 3d b6 8c 96 3e ad d1 1d 3e 3a b6 0b be
       0.045434434 0.2940423 0.15412016 -0.13643733
000200 cf 7b 37 3e 16 54 b4 bd 20 80 88 be ec f7 b6 3d
       0.17918323 -0.088051006 -0.26660252 0.08934006
000210 14 20 51 3e 83 e9 aa be f5 33 76 be 0c ed 92 bd
       0.20422393 -0.3338128 -0.24043258 -0.07174119
000220 85 b9 59 3d d0 84 b2 3e 2e 98 48 be da ae 19 3e
       0.05315544 0.34866953 -0.19589302 0.15008107
000230 0e fe ce 3c f6 bc c9 be c9 04 bf be ed 2c 53 3e
       0.025267627 -0.39401978 -0.37308338 0.20622607
000240 1d 04 e4 bd 7b 3c 83 3e 57 4f 78 bd 3d 6c 44 bd
       -0.11133597 0.2563208 -0.06062254 -0.047954787
000250 59 eb 80 3e a3 fc eb 3d 49 55 54 3d 42 04 b2 3e
       0.25179556 0.11522796 0.051839147 0.34768873
000260 3c 2d 6d 3e d4 71 8c 3e 2c d8 85 3e 25 fd ff bd
       0.23161787 0.27430594 0.2614149 -0.12499455
000270 d5 71 34 bd c1 ea 22 3e e7 92 9d bd 89 3e 33 3d
       -0.04405387 0.15909864 -0.07694035 0.04376081
000280 28 b8 62 bc 0d 3e 67 be dd 63 80 bd d8 e8 8c 39
       -0.013837852 -0.22582264 -0.062690474 0.00026876363
000290 3e 64 e5 3d 4a 6c 61 be 22 4e be 3d 51 4a 30 bd
       0.1120076 -0.22013965 0.092922464 -0.043039624
0002a0 04 af b1 3d 24 ef c2 bd a0 9e b8 bd 38 7d a1 be
       0.0867596 -0.09518269 -0.0901463 -0.31540847
0002b0 4e d4 56 be 4d 98 8e 3e 13 42 b2 3d be 80 50 3e
       -0.20979425 0.2785057 0.08704009 0.20361611
0002c0 13 be e8 bd 6d 83 de be af 74 36 be 62 d5 0f 3d
       -0.11364379 -0.43459645 -0.17817949 0.035115607
0002d0 e7 98 fe bd a1 59 9e 3d ef 75 56 3e 90 f1 8d bb
       -0.124315076 0.07731939 0.20943426 -0.004331775
0002e0 31 f5 92 3b 73 58 46 be eb 49 85 3e e1 1d 48 3d
       0.0044847955 -0.19369678 0.26032957 0.04885662
0002f0 4c 6f 49 3e 8f 19 00 3e 6c 41 6f 3e ee 62 63 bd
       0.19671363 0.1250975 0.233648 -0.05551427
000300 6d 14 fe 3d 8e 2e 9c be 59 36 0f bd 9a 17 4a bc
       0.1240624 -0.30504268 -0.03496394 -0.012334729
000310 97 ec dc bc 2c bd f9 bd 7e 5c 1f be c1 cb 77 bd
       -0.026968284 -0.12194285 -0.15562627 -0.06049705
000320 5d a7 c5 bd 16 31 45 bd e9 aa 51 be ac e4 4e 3c
       -0.09651063 -0.048142515 -0.20475353 0.012627762
000330 94 15 84 be 67 01 69 be 58 13 35 3d c8 98 1a 3b
       -0.25797713 -0.22754441 0.0442079 0.00235896
000340 cd 60 5f be 1c e6 17 3e 44 92 90 3e 4d cd 97 3d
       -0.2181427 0.14833874 0.28236592 0.07412205
000350 6d df 8d 3d 57 c9 24 be 9f c2 26 be 19 34 90 be
       0.06927381 -0.1609243 -0.1628518 -0.28164747
000360 66 a3 16 be 2f 83 87 be e3 eb 66 3e b4 c2 24 be
       -0.14710769 -0.26467273 0.22550921 -0.16089898
000370 0d 61 66 bd fe 0b 8b be 1c 28 66 be 35 36 ee 3d
       -0.0562449 -0.27157587 -0.22476238 0.11631433
000380 bd 78 e3 3d cf a3 34 3d c7 ab 30 be 5d 19 50 be
       0.111070134 0.044101533 -0.17253028 -0.20322175
000390 a9 20 e2 bd 0c f4 21 be 88 9e 32 be 1b 8d 9f bd
       -0.11041386 -0.15815753 -0.17443287 -0.077905856
0003a0 df 46 4e 3e 91 64 98 3e 0d 44 0a 3e dd ab de bd
       0.20144223 0.29764226 0.13502522 -0.10872624
0003b0 43 0b e4 3d 03 45 fb bc 04 5d 70 be f6 6b cd bc
       0.111349605 -0.030672556 -0.23472983 -0.025075894
0003c0 f3 66 cf bd 8b a6 ee be 9d f6 93 be 6d ac 0e be
       -0.10127058 -0.46611437 -0.28899089 -0.13932963
0003d0 86 72 91 3d 18 22 6e 3d d5 67 79 be 7e da 42 3a
       0.07101922 0.058137983 -0.24356015 0.00074330706
0003e0 81 2e 79 3e ac f2 00 bc 25 d9 9a be 7d 66 67 3e
       0.24334146 -0.0078703575 -0.30243793 0.2259769
0003f0 d8 4f 3d 3e 53 2e 26 be 28 62 8d 3b 9a 9f b4 3d
       0.18487489 -0.16228609 0.0043146797 0.08819504

embed_blstats.0.bias f4 [32]
000000 93 cc 1e 3e 41 ec 1b be 6d b4 6c 3e 36 37 16 be
       0.15507726 -0.15226842 0.23115702 -0.14669499
000010 96 b3 53 be 82 cf 47 3e 28 eb 4d be af 6a b0 bd
       -0.20673975 0.19512752 -0.20109236 -0.08614098
000020 ce a9 1a 3e 0b 0a 05 3e 40 ed c7 3b 1c 08 a7 3d
       0.15103838 0.12992112 0.0061012805 0.081558436
000030 3c f0 b3 3e 33 39 d4 bd 55 e1 3e 3e 32 21 11 3e
       0.35144222 -0.103624724 0.18640645 0.1417282
000040 b3 85 51 3e 03 88 d6 bd 32 11 72 be b1 41 08 3e
       0.20461158 -0.10475161 -0.23639372 0.1330631
000050 23 bf 19 3e a9 9b 18 be a2 68 68 be e4 03 e8 3d
       0.15014319 -0.1490313 -0.22696164 0.11328867
000060 cd fd d7 bd 36 37 c5 3c 6c 98 67 3d 28 c2 99 3e
       -0.105464555 0.024074178 0.056541845 0.30030942
000070 fa b6 23 3e 21 27 66 3e 3a f4 8a 3e de 6f a8 3d
       0.15987769 0.22475864 0.27139455 0.08224462
